…
I0121 16:31:10.288705 15590 net.cpp:296] The NetState phase (0) differed from the phase (1) specified by a rule in layer data
I0121 16:31:10.288749 15590 net.cpp:296] The NetState phase (0) differed from the phase (1) specified by a rule in layer accuracy
I0121 16:31:10.289002 15590 net.cpp:53] Initializing net from parameters: 
name: "CaffeNet"
state {
  phase: TRAIN
  level: 0
  stage: ""
}
layer {
  name: "data"
  type: "Data"
  top: "data"
  top: "label"
  include {
    phase: TRAIN
  }
  transform_param {
    mirror: true
    crop_size: 227
    mean_file: "mean.binaryproto"
  }
  data_param {
    source: "train_lmdb"
    batch_size: 256
    backend: LMDB
  }
}
layer {
  name: "conv1"
  type: "Convolution"
  bottom: "data"
  top: "conv1"
  param {
    lr_mult: 1
    decay_mult: 1
  }
  param {
    lr_mult: 2
    decay_mult: 0
  }
  convolution_param {
    num_output: 96
    kernel_size: 11
    stride: 4
    weight_filler {
      type: "gaussian"
      std: 0.01
    }
    bias_filler {
      type: "constant"
      value: 0
    }
  }
}
layer {
  name: "relu1"
  type: "ReLU"
  bottom: "conv1"
  top: "conv1"
}
layer {
  name: "pool1"
  type: "Pooling"
  bottom: "conv1"
  top: "pool1"
  pooling_param {
    pool: MAX
    kernel_size: 3
    stride: 2
  }
}
layer {
  name: "norm1"
  type: "LRN"
  bottom: "pool1"
  top: "norm1"
  lrn_param {
    local_size: 5
    alpha: 0.0001
    beta: 0.75
  }
}
layer {
  name: "conv2"
  type: "Convolution"
  bottom: "norm1"
  top: "conv2"
  param {
    lr_mult: 1
    decay_mult: 1
  }
  param {
    lr_mult: 2
    decay_mult: 0
  }
  convolution_param {
    num_output: 256
    pad: 2
    kernel_size: 5
    group: 2
    weight_filler {
      type: "gaussian"
      std: 0.01
    }
    bias_filler {
      type: "constant"
      value: 1
    }
  }
}
layer {
  name: "relu2"
  type: "ReLU"
  bottom: "conv2"
  top: "conv2"
}
layer {
  name: "pool2"
  type: "Pooling"
  bottom: "conv2"
  top: "pool2"
  pooling_param {
    pool: MAX
    kernel_size: 3
    stride: 2
  }
}
layer {
  name: "norm2"
  type: "LRN"
  bottom: "pool2"
  top: "norm2"
  lrn_param {
    local_size: 5
    alpha: 0.0001
    beta: 0.75
  }
}
layer {
  name: "conv3"
  type: "Convolution"
  bottom: "norm2"
  top: "conv3"
  param {
    lr_mult: 1
    decay_mult: 1
  }
  param {
    lr_mult: 2
    decay_mult: 0
  }
  convolution_param {
    num_output: 384
    pad: 1
    kernel_size: 3
    weight_filler {
      type: "gaussian"
      std: 0.01
    }
    bias_filler {
      type: "constant"
      value: 0
    }
  }
}
layer {
  name: "relu3"
  type: "ReLU"
  bottom: "conv3"
  top: "conv3"
}
layer {
  name: "conv4"
  type: "Convolution"
  bottom: "conv3"
  top: "conv4"
  param {
    lr_mult: 1
    decay_mult: 1
  }
  param {
    lr_mult: 2
    decay_mult: 0
  }
  convolution_param {
    num_output: 384
    pad: 1
    kernel_size: 3
    group: 2
    weight_filler {
      type: "gaussian"
      std: 0.01
    }
    bias_filler {
      type: "constant"
      value: 1
    }
  }
}
layer {
  name: "relu4"
  type: "ReLU"
  bottom: "conv4"
  top: "conv4"
}
layer {
  name: "conv5"
  type: "Convolution"
  bottom: "conv4"
  top: "conv5"
  param {
    lr_mult: 1
    decay_mult: 1
  }
  param {
    lr_mult: 2
    decay_mult: 0
  }
  convolution_param {
    num_output: 256
    pad: 1
    kernel_size: 3
    group: 2
    weight_filler {
      type: "gaussian"
      std: 0.01
    }
    bias_filler {
      type: "constant"
      value: 1
    }
  }
}
layer {
  name: "relu5"
  type: "ReLU"
  bottom: "conv5"
  top: "conv5"
}
layer {
  name: "pool5"
  type: "Pooling"
  bottom: "conv5"
  top: "pool5"
  pooling_param {
    pool: MAX
    kernel_size: 3
    stride: 2
  }
}
layer {
  name: "fc6"
  type: "InnerProduct"
  bottom: "pool5"
  top: "fc6"
  param {
    lr_mult: 1
    decay_mult: 1
  }
  param {
    lr_mult: 2
    decay_mult: 0
  }
  inner_product_param {
    num_output: 4096
    weight_filler {
      type: "gaussian"
      std: 0.005
    }
    bias_filler {
      type: "constant"
      value: 1
    }
  }
}
layer {
  name: "relu6"
  type: "ReLU"
  bottom: "fc6"
  top: "fc6"
}
layer {
  name: "drop6"
  type: "Dropout"
  bottom: "fc6"
  top: "fc6"
  dropout_param {
    dropout_ratio: 0.5
  }
}
layer {
  name: "fc7"
  type: "InnerProduct"
  bottom: "fc6"
  top: "fc7"
  param {
    lr_mult: 1
    decay_mult: 1
  }
  param {
    lr_mult: 2
    decay_mult: 0
  }
  inner_product_param {
    num_output: 4096
    weight_filler {
      type: "gaussian"
      std: 0.005
    }
    bias_filler {
      type: "constant"
      value: 1
    }
  }
}
layer {
  name: "relu7"
  type: "ReLU"
  bottom: "fc7"
  top: "fc7"
}
layer {
  name: "drop7"
  type: "Dropout"
  bottom: "fc7"
  top: "fc7"
  dropout_param {
    dropout_ratio: 0.5
  }
}
layer {
  name: "fc8"
  type: "InnerProduct"
  bottom: "fc7"
  top: "fc8"
  param {
    lr_mult: 1
    decay_mult: 1
  }
  param {
    lr_mult: 2
    decay_mult: 0
  }
  inner_product_param {
    num_output: 10
    weight_filler {
      type: "gaussian"
      std: 0.01
    }
    bias_filler {
      type: "constant"
      value: 0
    }
  }
}
layer {
  name: "loss"
  type: "SoftmaxWithLoss"
  bottom: "fc8"
  bottom: "label"
  top: "loss"
}
I0121 16:31:10.289228 15590 layer_factory.hpp:77] Creating layer data
I0121 16:31:10.309578 15590 db_lmdb.cpp:35] Opened lmdb train_lmdb
I0121 16:31:10.309784 15590 net.cpp:86] Creating Layer data
I0121 16:31:10.309809 15590 net.cpp:382] data -> data
I0121 16:31:10.309856 15590 net.cpp:382] data -> label
I0121 16:31:10.309883 15590 data_transformer.cpp:25] Loading mean file from: mean.binaryproto
I0121 16:31:10.315107 15590 data_layer.cpp:45] output data size: 256,3,227,227
I0121 16:31:10.866488 15590 net.cpp:124] Setting up data
I0121 16:31:10.866554 15590 net.cpp:131] Top shape: 256 3 227 227 (39574272)
I0121 16:31:10.866565 15590 net.cpp:131] Top shape: 256 (256)
I0121 16:31:10.866571 15590 net.cpp:139] Memory required for data: 158298112
I0121 16:31:10.866590 15590 layer_factory.hpp:77] Creating layer conv1
I0121 16:31:10.866632 15590 net.cpp:86] Creating Layer conv1
I0121 16:31:10.866646 15590 net.cpp:408] conv1 <- data
I0121 16:31:10.866675 15590 net.cpp:382] conv1 -> conv1
I0121 16:31:11.160706 15590 net.cpp:124] Setting up conv1
I0121 16:31:11.160753 15590 net.cpp:131] Top shape: 256 96 55 55 (74342400)
I0121 16:31:11.160760 15590 net.cpp:139] Memory required for data: 455667712
I0121 16:31:11.160797 15590 layer_factory.hpp:77] Creating layer relu1
I0121 16:31:11.160821 15590 net.cpp:86] Creating Layer relu1
I0121 16:31:11.160830 15590 net.cpp:408] relu1 <- conv1
I0121 16:31:11.160845 15590 net.cpp:369] relu1 -> conv1 (in-place)
I0121 16:31:11.161208 15590 net.cpp:124] Setting up relu1
I0121 16:31:11.161226 15590 net.cpp:131] Top shape: 256 96 55 55 (74342400)
I0121 16:31:11.161232 15590 net.cpp:139] Memory required for data: 753037312
I0121 16:31:11.161239 15590 layer_factory.hpp:77] Creating layer pool1
I0121 16:31:11.161262 15590 net.cpp:86] Creating Layer pool1
I0121 16:31:11.161268 15590 net.cpp:408] pool1 <- conv1
I0121 16:31:11.161303 15590 net.cpp:382] pool1 -> pool1
I0121 16:31:11.161376 15590 net.cpp:124] Setting up pool1
I0121 16:31:11.161391 15590 net.cpp:131] Top shape: 256 96 27 27 (17915904)
I0121 16:31:11.161396 15590 net.cpp:139] Memory required for data: 824700928
I0121 16:31:11.161402 15590 layer_factory.hpp:77] Creating layer norm1
I0121 16:31:11.161422 15590 net.cpp:86] Creating Layer norm1
I0121 16:31:11.161430 15590 net.cpp:408] norm1 <- pool1
I0121 16:31:11.161439 15590 net.cpp:382] norm1 -> norm1
I0121 16:31:11.161680 15590 net.cpp:124] Setting up norm1
I0121 16:31:11.161697 15590 net.cpp:131] Top shape: 256 96 27 27 (17915904)
I0121 16:31:11.161739 15590 net.cpp:139] Memory required for data: 896364544
I0121 16:31:11.161746 15590 layer_factory.hpp:77] Creating layer conv2
I0121 16:31:11.161767 15590 net.cpp:86] Creating Layer conv2
I0121 16:31:11.161774 15590 net.cpp:408] conv2 <- norm1
I0121 16:31:11.161784 15590 net.cpp:382] conv2 -> conv2
I0121 16:31:11.179508 15590 net.cpp:124] Setting up conv2
I0121 16:31:11.179569 15590 net.cpp:131] Top shape: 256 256 27 27 (47775744)
I0121 16:31:11.179577 15590 net.cpp:139] Memory required for data: 1087467520
I0121 16:31:11.179611 15590 layer_factory.hpp:77] Creating layer relu2
I0121 16:31:11.179636 15590 net.cpp:86] Creating Layer relu2
I0121 16:31:11.179651 15590 net.cpp:408] relu2 <- conv2
I0121 16:31:11.179663 15590 net.cpp:369] relu2 -> conv2 (in-place)
I0121 16:31:11.179939 15590 net.cpp:124] Setting up relu2
I0121 16:31:11.179956 15590 net.cpp:131] Top shape: 256 256 27 27 (47775744)
I0121 16:31:11.179962 15590 net.cpp:139] Memory required for data: 1278570496
I0121 16:31:11.179970 15590 layer_factory.hpp:77] Creating layer pool2
I0121 16:31:11.179986 15590 net.cpp:86] Creating Layer pool2
I0121 16:31:11.179993 15590 net.cpp:408] pool2 <- conv2
I0121 16:31:11.180006 15590 net.cpp:382] pool2 -> pool2
I0121 16:31:11.180094 15590 net.cpp:124] Setting up pool2
I0121 16:31:11.180109 15590 net.cpp:131] Top shape: 256 256 13 13 (11075584)
I0121 16:31:11.180114 15590 net.cpp:139] Memory required for data: 1322872832
I0121 16:31:11.180119 15590 layer_factory.hpp:77] Creating layer norm2
I0121 16:31:11.180143 15590 net.cpp:86] Creating Layer norm2
I0121 16:31:11.180151 15590 net.cpp:408] norm2 <- pool2
I0121 16:31:11.180160 15590 net.cpp:382] norm2 -> norm2
I0121 16:31:11.180595 15590 net.cpp:124] Setting up norm2
I0121 16:31:11.180625 15590 net.cpp:131] Top shape: 256 256 13 13 (11075584)
I0121 16:31:11.180631 15590 net.cpp:139] Memory required for data: 1367175168
I0121 16:31:11.180637 15590 layer_factory.hpp:77] Creating layer conv3
I0121 16:31:11.180660 15590 net.cpp:86] Creating Layer conv3
I0121 16:31:11.180666 15590 net.cpp:408] conv3 <- norm2
I0121 16:31:11.180680 15590 net.cpp:382] conv3 -> conv3
I0121 16:31:11.217926 15590 net.cpp:124] Setting up conv3
I0121 16:31:11.217981 15590 net.cpp:131] Top shape: 256 384 13 13 (16613376)
I0121 16:31:11.217988 15590 net.cpp:139] Memory required for data: 1433628672
I0121 16:31:11.218017 15590 layer_factory.hpp:77] Creating layer relu3
I0121 16:31:11.218036 15590 net.cpp:86] Creating Layer relu3
I0121 16:31:11.218044 15590 net.cpp:408] relu3 <- conv3
I0121 16:31:11.218055 15590 net.cpp:369] relu3 -> conv3 (in-place)
I0121 16:31:11.218288 15590 net.cpp:124] Setting up relu3
I0121 16:31:11.218304 15590 net.cpp:131] Top shape: 256 384 13 13 (16613376)
I0121 16:31:11.218310 15590 net.cpp:139] Memory required for data: 1500082176
I0121 16:31:11.218317 15590 layer_factory.hpp:77] Creating layer conv4
I0121 16:31:11.218348 15590 net.cpp:86] Creating Layer conv4
I0121 16:31:11.218356 15590 net.cpp:408] conv4 <- conv3
I0121 16:31:11.218366 15590 net.cpp:382] conv4 -> conv4
I0121 16:31:11.247587 15590 net.cpp:124] Setting up conv4
I0121 16:31:11.247630 15590 net.cpp:131] Top shape: 256 384 13 13 (16613376)
I0121 16:31:11.247637 15590 net.cpp:139] Memory required for data: 1566535680
I0121 16:31:11.247654 15590 layer_factory.hpp:77] Creating layer relu4
I0121 16:31:11.247676 15590 net.cpp:86] Creating Layer relu4
I0121 16:31:11.247685 15590 net.cpp:408] relu4 <- conv4
I0121 16:31:11.247697 15590 net.cpp:369] relu4 -> conv4 (in-place)
I0121 16:31:11.247927 15590 net.cpp:124] Setting up relu4
I0121 16:31:11.247943 15590 net.cpp:131] Top shape: 256 384 13 13 (16613376)
I0121 16:31:11.247949 15590 net.cpp:139] Memory required for data: 1632989184
I0121 16:31:11.247956 15590 layer_factory.hpp:77] Creating layer conv5
I0121 16:31:11.247978 15590 net.cpp:86] Creating Layer conv5
I0121 16:31:11.247987 15590 net.cpp:408] conv5 <- conv4
I0121 16:31:11.248000 15590 net.cpp:382] conv5 -> conv5
I0121 16:31:11.268610 15590 net.cpp:124] Setting up conv5
I0121 16:31:11.268707 15590 net.cpp:131] Top shape: 256 256 13 13 (11075584)
I0121 16:31:11.268714 15590 net.cpp:139] Memory required for data: 1677291520
I0121 16:31:11.268738 15590 layer_factory.hpp:77] Creating layer relu5
I0121 16:31:11.268759 15590 net.cpp:86] Creating Layer relu5
I0121 16:31:11.268766 15590 net.cpp:408] relu5 <- conv5
I0121 16:31:11.268777 15590 net.cpp:369] relu5 -> conv5 (in-place)
I0121 16:31:11.269002 15590 net.cpp:124] Setting up relu5
I0121 16:31:11.269018 15590 net.cpp:131] Top shape: 256 256 13 13 (11075584)
I0121 16:31:11.269024 15590 net.cpp:139] Memory required for data: 1721593856
I0121 16:31:11.269038 15590 layer_factory.hpp:77] Creating layer pool5
I0121 16:31:11.269053 15590 net.cpp:86] Creating Layer pool5
I0121 16:31:11.269062 15590 net.cpp:408] pool5 <- conv5
I0121 16:31:11.269075 15590 net.cpp:382] pool5 -> pool5
I0121 16:31:11.269141 15590 net.cpp:124] Setting up pool5
I0121 16:31:11.269155 15590 net.cpp:131] Top shape: 256 256 6 6 (2359296)
I0121 16:31:11.269160 15590 net.cpp:139] Memory required for data: 1731031040
I0121 16:31:11.269165 15590 layer_factory.hpp:77] Creating layer fc6
I0121 16:31:11.269191 15590 net.cpp:86] Creating Layer fc6
I0121 16:31:11.269201 15590 net.cpp:408] fc6 <- pool5
I0121 16:31:11.269213 15590 net.cpp:382] fc6 -> fc6
I0121 16:31:12.795732 15590 net.cpp:124] Setting up fc6
I0121 16:31:12.795789 15590 net.cpp:131] Top shape: 256 4096 (1048576)
I0121 16:31:12.795796 15590 net.cpp:139] Memory required for data: 1735225344
I0121 16:31:12.795824 15590 layer_factory.hpp:77] Creating layer relu6
I0121 16:31:12.795850 15590 net.cpp:86] Creating Layer relu6
I0121 16:31:12.795863 15590 net.cpp:408] relu6 <- fc6
I0121 16:31:12.795877 15590 net.cpp:369] relu6 -> fc6 (in-place)
I0121 16:31:12.796684 15590 net.cpp:124] Setting up relu6
I0121 16:31:12.796713 15590 net.cpp:131] Top shape: 256 4096 (1048576)
I0121 16:31:12.796720 15590 net.cpp:139] Memory required for data: 1739419648
I0121 16:31:12.796726 15590 layer_factory.hpp:77] Creating layer drop6
I0121 16:31:12.796746 15590 net.cpp:86] Creating Layer drop6
I0121 16:31:12.796758 15590 net.cpp:408] drop6 <- fc6
I0121 16:31:12.796766 15590 net.cpp:369] drop6 -> fc6 (in-place)
I0121 16:31:12.796818 15590 net.cpp:124] Setting up drop6
I0121 16:31:12.796831 15590 net.cpp:131] Top shape: 256 4096 (1048576)
I0121 16:31:12.796836 15590 net.cpp:139] Memory required for data: 1743613952
I0121 16:31:12.796844 15590 layer_factory.hpp:77] Creating layer fc7
I0121 16:31:12.796869 15590 net.cpp:86] Creating Layer fc7
I0121 16:31:12.796877 15590 net.cpp:408] fc7 <- fc6
I0121 16:31:12.796890 15590 net.cpp:382] fc7 -> fc7
I0121 16:31:13.479986 15590 net.cpp:124] Setting up fc7
I0121 16:31:13.480033 15590 net.cpp:131] Top shape: 256 4096 (1048576)
I0121 16:31:13.480041 15590 net.cpp:139] Memory required for data: 1747808256
I0121 16:31:13.480059 15590 layer_factory.hpp:77] Creating layer relu7
I0121 16:31:13.480077 15590 net.cpp:86] Creating Layer relu7
I0121 16:31:13.480087 15590 net.cpp:408] relu7 <- fc7
I0121 16:31:13.480104 15590 net.cpp:369] relu7 -> fc7 (in-place)
I0121 16:31:13.480427 15590 net.cpp:124] Setting up relu7
I0121 16:31:13.480443 15590 net.cpp:131] Top shape: 256 4096 (1048576)
I0121 16:31:13.480449 15590 net.cpp:139] Memory required for data: 1752002560
I0121 16:31:13.480455 15590 layer_factory.hpp:77] Creating layer drop7
I0121 16:31:13.480469 15590 net.cpp:86] Creating Layer drop7
I0121 16:31:13.480476 15590 net.cpp:408] drop7 <- fc7
I0121 16:31:13.480484 15590 net.cpp:369] drop7 -> fc7 (in-place)
I0121 16:31:13.480516 15590 net.cpp:124] Setting up drop7
I0121 16:31:13.480528 15590 net.cpp:131] Top shape: 256 4096 (1048576)
I0121 16:31:13.480535 15590 net.cpp:139] Memory required for data: 1756196864
I0121 16:31:13.480540 15590 layer_factory.hpp:77] Creating layer fc8
I0121 16:31:13.480557 15590 net.cpp:86] Creating Layer fc8
I0121 16:31:13.480568 15590 net.cpp:408] fc8 <- fc7
I0121 16:31:13.480581 15590 net.cpp:382] fc8 -> fc8
I0121 16:31:13.482328 15590 net.cpp:124] Setting up fc8
I0121 16:31:13.482391 15590 net.cpp:131] Top shape: 256 10 (2560)
I0121 16:31:13.482398 15590 net.cpp:139] Memory required for data: 1756207104
I0121 16:31:13.482409 15590 layer_factory.hpp:77] Creating layer loss
I0121 16:31:13.482432 15590 net.cpp:86] Creating Layer loss
I0121 16:31:13.482439 15590 net.cpp:408] loss <- fc8
I0121 16:31:13.482445 15590 net.cpp:408] loss <- label
I0121 16:31:13.482463 15590 net.cpp:382] loss -> loss
I0121 16:31:13.482496 15590 layer_factory.hpp:77] Creating layer loss
…
I0121 16:31:13.485098 15590 solver.cpp:173] Creating test net (#0) specified by net file: caffenet_train.prototxt
I0121 16:31:13.485172 15590 net.cpp:296] The NetState phase (1) differed from the phase (0) specified by a rule in layer data
I0121 16:31:13.485436 15590 net.cpp:53] Initializing net from parameters: 
name: "CaffeNet"
state {
  phase: TEST
}
layer {
  name: "data"
  type: "Data"
  top: "data"
  top: "label"
  include {
    phase: TEST
  }
  transform_param {
    mirror: false
    crop_size: 227
    mean_file: "mean.binaryproto"
  }
  data_param {
    source: "val_lmdb"
    batch_size: 50
    backend: LMDB
  }
}
layer {
  name: "conv1"
  type: "Convolution"
  bottom: "data"
  top: "conv1"
  param {
    lr_mult: 1
    decay_mult: 1
  }
  param {
    lr_mult: 2
    decay_mult: 0
  }
  convolution_param {
    num_output: 96
    kernel_size: 11
    stride: 4
    weight_filler {
      type: "gaussian"
      std: 0.01
    }
    bias_filler {
      type: "constant"
      value: 0
    }
  }
}
layer {
  name: "relu1"
  type: "ReLU"
  bottom: "conv1"
  top: "conv1"
}
layer {
  name: "pool1"
  type: "Pooling"
  bottom: "conv1"
  top: "pool1"
  pooling_param {
    pool: MAX
    kernel_size: 3
    stride: 2
  }
}
layer {
  name: "norm1"
  type: "LRN"
  bottom: "pool1"
  top: "norm1"
  lrn_param {
    local_size: 5
    alpha: 0.0001
    beta: 0.75
  }
}
layer {
  name: "conv2"
  type: "Convolution"
  bottom: "norm1"
  top: "conv2"
  param {
    lr_mult: 1
    decay_mult: 1
  }
  param {
    lr_mult: 2
    decay_mult: 0
  }
  convolution_param {
    num_output: 256
    pad: 2
    kernel_size: 5
    group: 2
    weight_filler {
      type: "gaussian"
      std: 0.01
    }
    bias_filler {
      type: "constant"
      value: 1
    }
  }
}
layer {
  name: "relu2"
  type: "ReLU"
  bottom: "conv2"
  top: "conv2"
}
layer {
  name: "pool2"
  type: "Pooling"
  bottom: "conv2"
  top: "pool2"
  pooling_param {
    pool: MAX
    kernel_size: 3
    stride: 2
  }
}
layer {
  name: "norm2"
  type: "LRN"
  bottom: "pool2"
  top: "norm2"
  lrn_param {
    local_size: 5
    alpha: 0.0001
    beta: 0.75
  }
}
layer {
  name: "conv3"
  type: "Convolution"
  bottom: "norm2"
  top: "conv3"
  param {
    lr_mult: 1
    decay_mult: 1
  }
  param {
    lr_mult: 2
    decay_mult: 0
  }
  convolution_param {
    num_output: 384
    pad: 1
    kernel_size: 3
    weight_filler {
      type: "gaussian"
      std: 0.01
    }
    bias_filler {
      type: "constant"
      value: 0
    }
  }
}
layer {
  name: "relu3"
  type: "ReLU"
  bottom: "conv3"
  top: "conv3"
}
layer {
  name: "conv4"
  type: "Convolution"
  bottom: "conv3"
  top: "conv4"
  param {
    lr_mult: 1
    decay_mult: 1
  }
  param {
    lr_mult: 2
    decay_mult: 0
  }
  convolution_param {
    num_output: 384
    pad: 1
    kernel_size: 3
    group: 2
    weight_filler {
      type: "gaussian"
      std: 0.01
    }
    bias_filler {
      type: "constant"
      value: 1
    }
  }
}
layer {
  name: "relu4"
  type: "ReLU"
  bottom: "conv4"
  top: "conv4"
}
layer {
  name: "conv5"
  type: "Convolution"
  bottom: "conv4"
  top: "conv5"
  param {
    lr_mult: 1
    decay_mult: 1
  }
  param {
    lr_mult: 2
    decay_mult: 0
  }
  convolution_param {
    num_output: 256
    pad: 1
    kernel_size: 3
    group: 2
    weight_filler {
      type: "gaussian"
      std: 0.01
    }
    bias_filler {
      type: "constant"
      value: 1
    }
  }
}
layer {
  name: "relu5"
  type: "ReLU"
  bottom: "conv5"
  top: "conv5"
}
layer {
  name: "pool5"
  type: "Pooling"
  bottom: "conv5"
  top: "pool5"
  pooling_param {
    pool: MAX
    kernel_size: 3
    stride: 2
  }
}
layer {
  name: "fc6"
  type: "InnerProduct"
  bottom: "pool5"
  top: "fc6"
  param {
    lr_mult: 1
    decay_mult: 1
  }
  param {
    lr_mult: 2
    decay_mult: 0
  }
  inner_product_param {
    num_output: 4096
    weight_filler {
      type: "gaussian"
      std: 0.005
    }
    bias_filler {
      type: "constant"
      value: 1
    }
  }
}
layer {
  name: "relu6"
  type: "ReLU"
  bottom: "fc6"
  top: "fc6"
}
layer {
  name: "drop6"
  type: "Dropout"
  bottom: "fc6"
  top: "fc6"
  dropout_param {
    dropout_ratio: 0.5
  }
}
layer {
  name: "fc7"
  type: "InnerProduct"
  bottom: "fc6"
  top: "fc7"
  param {
    lr_mult: 1
    decay_mult: 1
  }
  param {
    lr_mult: 2
    decay_mult: 0
  }
  inner_product_param {
    num_output: 4096
    weight_filler {
      type: "gaussian"
      std: 0.005
    }
    bias_filler {
      type: "constant"
      value: 1
    }
  }
}
layer {
  name: "relu7"
  type: "ReLU"
  bottom: "fc7"
  top: "fc7"
}
layer {
  name: "drop7"
  type: "Dropout"
  bottom: "fc7"
  top: "fc7"
  dropout_param {
    dropout_ratio: 0.5
  }
}
layer {
  name: "fc8"
  type: "InnerProduct"
  bottom: "fc7"
  top: "fc8"
  param {
    lr_mult: 1
    decay_mult: 1
  }
  param {
    lr_mult: 2
    decay_mult: 0
  }
  inner_product_param {
    num_output: 10
    weight_filler {
      type: "gaussian"
      std: 0.01
    }
    bias_filler {
      type: "constant"
      value: 0
    }
  }
}
layer {
  name: "accuracy"
  type: "Accuracy"
  bottom: "fc8"
  bottom: "label"
  top: "accuracy"
  include {
    phase: TEST
  }
}
layer {
  name: "loss"
  type: "SoftmaxWithLoss"
  bottom: "fc8"
  bottom: "label"
  top: "loss"
}
I0121 16:31:13.485648 15590 layer_factory.hpp:77] Creating layer data
I0121 16:31:13.508481 15590 db_lmdb.cpp:35] Opened lmdb val_lmdb
I0121 16:31:13.508651 15590 net.cpp:86] Creating Layer data
I0121 16:31:13.508692 15590 net.cpp:382] data -> data
I0121 16:31:13.508713 15590 net.cpp:382] data -> label
I0121 16:31:13.508728 15590 data_transformer.cpp:25] Loading mean file from: mean.binaryproto
I0121 16:31:13.513067 15590 data_layer.cpp:45] output data size: 50,3,227,227
I0121 16:31:13.634812 15590 net.cpp:124] Setting up data
I0121 16:31:13.634873 15590 net.cpp:131] Top shape: 50 3 227 227 (7729350)
I0121 16:31:13.634884 15590 net.cpp:131] Top shape: 50 (50)
I0121 16:31:13.634891 15590 net.cpp:139] Memory required for data: 30917600
I0121 16:31:13.634903 15590 layer_factory.hpp:77] Creating layer label_data_1_split
I0121 16:31:13.634933 15590 net.cpp:86] Creating Layer label_data_1_split
I0121 16:31:13.634944 15590 net.cpp:408] label_data_1_split <- label
I0121 16:31:13.634958 15590 net.cpp:382] label_data_1_split -> label_data_1_split_0
I0121 16:31:13.634975 15590 net.cpp:382] label_data_1_split -> label_data_1_split_1
I0121 16:31:13.635217 15590 net.cpp:124] Setting up label_data_1_split
I0121 16:31:13.635273 15590 net.cpp:131] Top shape: 50 (50)
I0121 16:31:13.635282 15590 net.cpp:131] Top shape: 50 (50)
I0121 16:31:13.635288 15590 net.cpp:139] Memory required for data: 30918000
I0121 16:31:13.635296 15590 layer_factory.hpp:77] Creating layer conv1
I0121 16:31:13.635327 15590 net.cpp:86] Creating Layer conv1
I0121 16:31:13.635337 15590 net.cpp:408] conv1 <- data
I0121 16:31:13.635350 15590 net.cpp:382] conv1 -> conv1
I0121 16:31:13.641093 15590 net.cpp:124] Setting up conv1
I0121 16:31:13.641131 15590 net.cpp:131] Top shape: 50 96 55 55 (14520000)
I0121 16:31:13.641155 15590 net.cpp:139] Memory required for data: 88998000
I0121 16:31:13.641185 15590 layer_factory.hpp:77] Creating layer relu1
I0121 16:31:13.641197 15590 net.cpp:86] Creating Layer relu1
I0121 16:31:13.641216 15590 net.cpp:408] relu1 <- conv1
I0121 16:31:13.641227 15590 net.cpp:369] relu1 -> conv1 (in-place)
I0121 16:31:13.641451 15590 net.cpp:124] Setting up relu1
I0121 16:31:13.641468 15590 net.cpp:131] Top shape: 50 96 55 55 (14520000)
I0121 16:31:13.641476 15590 net.cpp:139] Memory required for data: 147078000
I0121 16:31:13.641482 15590 layer_factory.hpp:77] Creating layer pool1
I0121 16:31:13.641499 15590 net.cpp:86] Creating Layer pool1
I0121 16:31:13.641505 15590 net.cpp:408] pool1 <- conv1
I0121 16:31:13.641515 15590 net.cpp:382] pool1 -> pool1
I0121 16:31:13.641587 15590 net.cpp:124] Setting up pool1
I0121 16:31:13.641600 15590 net.cpp:131] Top shape: 50 96 27 27 (3499200)
I0121 16:31:13.641607 15590 net.cpp:139] Memory required for data: 161074800
I0121 16:31:13.641613 15590 layer_factory.hpp:77] Creating layer norm1
I0121 16:31:13.641628 15590 net.cpp:86] Creating Layer norm1
I0121 16:31:13.641636 15590 net.cpp:408] norm1 <- pool1
I0121 16:31:13.641646 15590 net.cpp:382] norm1 -> norm1
I0121 16:31:13.642053 15590 net.cpp:124] Setting up norm1
I0121 16:31:13.642071 15590 net.cpp:131] Top shape: 50 96 27 27 (3499200)
I0121 16:31:13.642079 15590 net.cpp:139] Memory required for data: 175071600
I0121 16:31:13.642086 15590 layer_factory.hpp:77] Creating layer conv2
I0121 16:31:13.642102 15590 net.cpp:86] Creating Layer conv2
I0121 16:31:13.642109 15590 net.cpp:408] conv2 <- norm1
I0121 16:31:13.642120 15590 net.cpp:382] conv2 -> conv2
I0121 16:31:13.656575 15590 net.cpp:124] Setting up conv2
I0121 16:31:13.656625 15590 net.cpp:131] Top shape: 50 256 27 27 (9331200)
I0121 16:31:13.656632 15590 net.cpp:139] Memory required for data: 212396400
I0121 16:31:13.656652 15590 layer_factory.hpp:77] Creating layer relu2
I0121 16:31:13.656667 15590 net.cpp:86] Creating Layer relu2
I0121 16:31:13.656677 15590 net.cpp:408] relu2 <- conv2
I0121 16:31:13.656688 15590 net.cpp:369] relu2 -> conv2 (in-place)
I0121 16:31:13.657053 15590 net.cpp:124] Setting up relu2
I0121 16:31:13.657073 15590 net.cpp:131] Top shape: 50 256 27 27 (9331200)
I0121 16:31:13.657078 15590 net.cpp:139] Memory required for data: 249721200
I0121 16:31:13.657084 15590 layer_factory.hpp:77] Creating layer pool2
I0121 16:31:13.657109 15590 net.cpp:86] Creating Layer pool2
I0121 16:31:13.657161 15590 net.cpp:408] pool2 <- conv2
I0121 16:31:13.657178 15590 net.cpp:382] pool2 -> pool2
I0121 16:31:13.657245 15590 net.cpp:124] Setting up pool2
I0121 16:31:13.657260 15590 net.cpp:131] Top shape: 50 256 13 13 (2163200)
I0121 16:31:13.657268 15590 net.cpp:139] Memory required for data: 258374000
I0121 16:31:13.657274 15590 layer_factory.hpp:77] Creating layer norm2
I0121 16:31:13.657286 15590 net.cpp:86] Creating Layer norm2
I0121 16:31:13.657294 15590 net.cpp:408] norm2 <- pool2
I0121 16:31:13.657302 15590 net.cpp:382] norm2 -> norm2
I0121 16:31:13.657732 15590 net.cpp:124] Setting up norm2
I0121 16:31:13.657760 15590 net.cpp:131] Top shape: 50 256 13 13 (2163200)
I0121 16:31:13.657768 15590 net.cpp:139] Memory required for data: 267026800
I0121 16:31:13.657774 15590 layer_factory.hpp:77] Creating layer conv3
I0121 16:31:13.657791 15590 net.cpp:86] Creating Layer conv3
I0121 16:31:13.657801 15590 net.cpp:408] conv3 <- norm2
I0121 16:31:13.657812 15590 net.cpp:382] conv3 -> conv3
I0121 16:31:13.694136 15590 net.cpp:124] Setting up conv3
I0121 16:31:13.694177 15590 net.cpp:131] Top shape: 50 384 13 13 (3244800)
I0121 16:31:13.694185 15590 net.cpp:139] Memory required for data: 280006000
I0121 16:31:13.694205 15590 layer_factory.hpp:77] Creating layer relu3
I0121 16:31:13.694231 15590 net.cpp:86] Creating Layer relu3
I0121 16:31:13.694239 15590 net.cpp:408] relu3 <- conv3
I0121 16:31:13.694252 15590 net.cpp:369] relu3 -> conv3 (in-place)
I0121 16:31:13.694639 15590 net.cpp:124] Setting up relu3
I0121 16:31:13.694655 15590 net.cpp:131] Top shape: 50 384 13 13 (3244800)
I0121 16:31:13.694661 15590 net.cpp:139] Memory required for data: 292985200
I0121 16:31:13.694667 15590 layer_factory.hpp:77] Creating layer conv4
I0121 16:31:13.694699 15590 net.cpp:86] Creating Layer conv4
I0121 16:31:13.694705 15590 net.cpp:408] conv4 <- conv3
I0121 16:31:13.694715 15590 net.cpp:382] conv4 -> conv4
I0121 16:31:13.723523 15590 net.cpp:124] Setting up conv4
I0121 16:31:13.723587 15590 net.cpp:131] Top shape: 50 384 13 13 (3244800)
I0121 16:31:13.723593 15590 net.cpp:139] Memory required for data: 305964400
I0121 16:31:13.723608 15590 layer_factory.hpp:77] Creating layer relu4
I0121 16:31:13.723639 15590 net.cpp:86] Creating Layer relu4
I0121 16:31:13.723647 15590 net.cpp:408] relu4 <- conv4
I0121 16:31:13.723661 15590 net.cpp:369] relu4 -> conv4 (in-place)
I0121 16:31:13.724045 15590 net.cpp:124] Setting up relu4
I0121 16:31:13.724061 15590 net.cpp:131] Top shape: 50 384 13 13 (3244800)
I0121 16:31:13.724067 15590 net.cpp:139] Memory required for data: 318943600
I0121 16:31:13.724086 15590 layer_factory.hpp:77] Creating layer conv5
I0121 16:31:13.724114 15590 net.cpp:86] Creating Layer conv5
I0121 16:31:13.724122 15590 net.cpp:408] conv5 <- conv4
I0121 16:31:13.724135 15590 net.cpp:382] conv5 -> conv5
I0121 16:31:13.744035 15590 net.cpp:124] Setting up conv5
I0121 16:31:13.744071 15590 net.cpp:131] Top shape: 50 256 13 13 (2163200)
I0121 16:31:13.744077 15590 net.cpp:139] Memory required for data: 327596400
I0121 16:31:13.744097 15590 layer_factory.hpp:77] Creating layer relu5
I0121 16:31:13.744115 15590 net.cpp:86] Creating Layer relu5
I0121 16:31:13.744122 15590 net.cpp:408] relu5 <- conv5
I0121 16:31:13.744134 15590 net.cpp:369] relu5 -> conv5 (in-place)
I0121 16:31:13.744354 15590 net.cpp:124] Setting up relu5
I0121 16:31:13.744374 15590 net.cpp:131] Top shape: 50 256 13 13 (2163200)
I0121 16:31:13.744381 15590 net.cpp:139] Memory required for data: 336249200
I0121 16:31:13.744387 15590 layer_factory.hpp:77] Creating layer pool5
I0121 16:31:13.744405 15590 net.cpp:86] Creating Layer pool5
I0121 16:31:13.744412 15590 net.cpp:408] pool5 <- conv5
I0121 16:31:13.744422 15590 net.cpp:382] pool5 -> pool5
I0121 16:31:13.744493 15590 net.cpp:124] Setting up pool5
I0121 16:31:13.744505 15590 net.cpp:131] Top shape: 50 256 6 6 (460800)
I0121 16:31:13.744513 15590 net.cpp:139] Memory required for data: 338092400
I0121 16:31:13.744518 15590 layer_factory.hpp:77] Creating layer fc6
I0121 16:31:13.744534 15590 net.cpp:86] Creating Layer fc6
I0121 16:31:13.744581 15590 net.cpp:408] fc6 <- pool5
I0121 16:31:13.744595 15590 net.cpp:382] fc6 -> fc6
I0121 16:31:15.243916 15590 net.cpp:124] Setting up fc6
I0121 16:31:15.243993 15590 net.cpp:131] Top shape: 50 4096 (204800)
I0121 16:31:15.244000 15590 net.cpp:139] Memory required for data: 338911600
I0121 16:31:15.244022 15590 layer_factory.hpp:77] Creating layer relu6
I0121 16:31:15.244050 15590 net.cpp:86] Creating Layer relu6
I0121 16:31:15.244062 15590 net.cpp:408] relu6 <- fc6
I0121 16:31:15.244079 15590 net.cpp:369] relu6 -> fc6 (in-place)
I0121 16:31:15.244977 15590 net.cpp:124] Setting up relu6
I0121 16:31:15.244997 15590 net.cpp:131] Top shape: 50 4096 (204800)
I0121 16:31:15.245002 15590 net.cpp:139] Memory required for data: 339730800
I0121 16:31:15.245008 15590 layer_factory.hpp:77] Creating layer drop6
I0121 16:31:15.245024 15590 net.cpp:86] Creating Layer drop6
I0121 16:31:15.245031 15590 net.cpp:408] drop6 <- fc6
I0121 16:31:15.245040 15590 net.cpp:369] drop6 -> fc6 (in-place)
I0121 16:31:15.245093 15590 net.cpp:124] Setting up drop6
I0121 16:31:15.245106 15590 net.cpp:131] Top shape: 50 4096 (204800)
I0121 16:31:15.245115 15590 net.cpp:139] Memory required for data: 340550000
I0121 16:31:15.245121 15590 layer_factory.hpp:77] Creating layer fc7
I0121 16:31:15.245137 15590 net.cpp:86] Creating Layer fc7
I0121 16:31:15.245146 15590 net.cpp:408] fc7 <- fc6
I0121 16:31:15.245157 15590 net.cpp:382] fc7 -> fc7
I0121 16:31:15.898941 15590 net.cpp:124] Setting up fc7
I0121 16:31:15.899011 15590 net.cpp:131] Top shape: 50 4096 (204800)
I0121 16:31:15.899019 15590 net.cpp:139] Memory required for data: 341369200
I0121 16:31:15.899040 15590 layer_factory.hpp:77] Creating layer relu7
I0121 16:31:15.899075 15590 net.cpp:86] Creating Layer relu7
I0121 16:31:15.899085 15590 net.cpp:408] relu7 <- fc7
I0121 16:31:15.899096 15590 net.cpp:369] relu7 -> fc7 (in-place)
I0121 16:31:15.899435 15590 net.cpp:124] Setting up relu7
I0121 16:31:15.899453 15590 net.cpp:131] Top shape: 50 4096 (204800)
I0121 16:31:15.899459 15590 net.cpp:139] Memory required for data: 342188400
I0121 16:31:15.899466 15590 layer_factory.hpp:77] Creating layer drop7
I0121 16:31:15.899479 15590 net.cpp:86] Creating Layer drop7
I0121 16:31:15.899485 15590 net.cpp:408] drop7 <- fc7
I0121 16:31:15.899494 15590 net.cpp:369] drop7 -> fc7 (in-place)
I0121 16:31:15.899559 15590 net.cpp:124] Setting up drop7
I0121 16:31:15.899574 15590 net.cpp:131] Top shape: 50 4096 (204800)
I0121 16:31:15.899580 15590 net.cpp:139] Memory required for data: 343007600
I0121 16:31:15.899588 15590 layer_factory.hpp:77] Creating layer fc8
I0121 16:31:15.899605 15590 net.cpp:86] Creating Layer fc8
I0121 16:31:15.899610 15590 net.cpp:408] fc8 <- fc7
I0121 16:31:15.899621 15590 net.cpp:382] fc8 -> fc8
I0121 16:31:15.901362 15590 net.cpp:124] Setting up fc8
I0121 16:31:15.901377 15590 net.cpp:131] Top shape: 50 10 (500)
I0121 16:31:15.901383 15590 net.cpp:139] Memory required for data: 343009600
I0121 16:31:15.901406 15590 layer_factory.hpp:77] Creating layer fc8_fc8_0_split
I0121 16:31:15.901417 15590 net.cpp:86] Creating Layer fc8_fc8_0_split
I0121 16:31:15.901423 15590 net.cpp:408] fc8_fc8_0_split <- fc8
I0121 16:31:15.901432 15590 net.cpp:382] fc8_fc8_0_split -> fc8_fc8_0_split_0
I0121 16:31:15.901444 15590 net.cpp:382] fc8_fc8_0_split -> fc8_fc8_0_split_1
I0121 16:31:15.901515 15590 net.cpp:124] Setting up fc8_fc8_0_split
I0121 16:31:15.901527 15590 net.cpp:131] Top shape: 50 10 (500)
I0121 16:31:15.901535 15590 net.cpp:131] Top shape: 50 10 (500)
I0121 16:31:15.901542 15590 net.cpp:139] Memory required for data: 343013600
I0121 16:31:15.901548 15590 layer_factory.hpp:77] Creating layer accuracy
I0121 16:31:15.901566 15590 net.cpp:86] Creating Layer accuracy
I0121 16:31:15.901573 15590 net.cpp:408] accuracy <- fc8_fc8_0_split_0
I0121 16:31:15.901582 15590 net.cpp:408] accuracy <- label_data_1_split_0
I0121 16:31:15.901590 15590 net.cpp:382] accuracy -> accuracy
…
