…
I0123 18:56:40.937789 36979 net.cpp:296] The NetState phase (0) differed from the phase (1) specified by a rule in layer data
I0123 18:56:40.937835 36979 net.cpp:296] The NetState phase (0) differed from the phase (1) specified by a rule in layer accuracy
I0123 18:56:40.938092 36979 net.cpp:53] Initializing net from parameters: 
name: "CaffeNet"
state {
  phase: TRAIN
  level: 0
  stage: ""
}
layer {
  name: "data"
  type: "Data"
  top: "data"
  top: "label"
  include {
    phase: TRAIN
  }
  transform_param {
    mirror: true
    crop_size: 227
    mean_file: "mean.binaryproto"
  }
  data_param {
    source: "train_lmdb"
    batch_size: 256
    backend: LMDB
  }
}
layer {
  name: "conv1"
  type: "Convolution"
  bottom: "data"
  top: "conv1"
  param {
    lr_mult: 1
    decay_mult: 1
  }
  param {
    lr_mult: 2
    decay_mult: 0
  }
  convolution_param {
    num_output: 96
    kernel_size: 11
    stride: 4
    weight_filler {
      type: "gaussian"
      std: 0.01
    }
    bias_filler {
      type: "constant"
      value: 0
    }
  }
}
layer {
  name: "relu1"
  type: "ReLU"
  bottom: "conv1"
  top: "conv1"
}
layer {
  name: "pool1"
  type: "Pooling"
  bottom: "conv1"
  top: "pool1"
  pooling_param {
    pool: MAX
    kernel_size: 3
    stride: 2
  }
}
layer {
  name: "norm1"
  type: "LRN"
  bottom: "pool1"
  top: "norm1"
  lrn_param {
    local_size: 5
    alpha: 0.0001
    beta: 0.75
  }
}
layer {
  name: "conv2"
  type: "Convolution"
  bottom: "norm1"
  top: "conv2"
  param {
    lr_mult: 1
    decay_mult: 1
  }
  param {
    lr_mult: 2
    decay_mult: 0
  }
  convolution_param {
    num_output: 256
    pad: 2
    kernel_size: 5
    group: 2
    weight_filler {
      type: "gaussian"
      std: 0.01
    }
    bias_filler {
      type: "constant"
      value: 1
    }
  }
}
layer {
  name: "relu2"
  type: "ReLU"
  bottom: "conv2"
  top: "conv2"
}
layer {
  name: "pool2"
  type: "Pooling"
  bottom: "conv2"
  top: "pool2"
  pooling_param {
    pool: MAX
    kernel_size: 3
    stride: 2
  }
}
layer {
  name: "norm2"
  type: "LRN"
  bottom: "pool2"
  top: "norm2"
  lrn_param {
    local_size: 5
    alpha: 0.0001
    beta: 0.75
  }
}
layer {
  name: "conv3"
  type: "Convolution"
  bottom: "norm2"
  top: "conv3"
  param {
    lr_mult: 1
    decay_mult: 1
  }
  param {
    lr_mult: 2
    decay_mult: 0
  }
  convolution_param {
    num_output: 384
    pad: 1
    kernel_size: 3
    weight_filler {
      type: "gaussian"
      std: 0.01
    }
    bias_filler {
      type: "constant"
      value: 0
    }
  }
}
layer {
  name: "relu3"
  type: "ReLU"
  bottom: "conv3"
  top: "conv3"
}
layer {
  name: "conv4"
  type: "Convolution"
  bottom: "conv3"
  top: "conv4"
  param {
    lr_mult: 1
    decay_mult: 1
  }
  param {
    lr_mult: 2
    decay_mult: 0
  }
  convolution_param {
    num_output: 384
    pad: 1
    kernel_size: 3
    group: 2
    weight_filler {
      type: "gaussian"
      std: 0.01
    }
    bias_filler {
      type: "constant"
      value: 1
    }
  }
}
layer {
  name: "relu4"
  type: "ReLU"
  bottom: "conv4"
  top: "conv4"
}
layer {
  name: "conv5"
  type: "Convolution"
  bottom: "conv4"
  top: "conv5"
  param {
    lr_mult: 1
    decay_mult: 1
  }
  param {
    lr_mult: 2
    decay_mult: 0
  }
  convolution_param {
    num_output: 256
    pad: 1
    kernel_size: 3
    group: 2
    weight_filler {
      type: "gaussian"
      std: 0.01
    }
    bias_filler {
      type: "constant"
      value: 1
    }
  }
}
layer {
  name: "relu5"
  type: "ReLU"
  bottom: "conv5"
  top: "conv5"
}
layer {
  name: "pool5"
  type: "Pooling"
  bottom: "conv5"
  top: "pool5"
  pooling_param {
    pool: MAX
    kernel_size: 3
    stride: 2
  }
}
layer {
  name: "fc6"
  type: "InnerProduct"
  bottom: "pool5"
  top: "fc6"
  param {
    lr_mult: 1
    decay_mult: 1
  }
  param {
    lr_mult: 2
    decay_mult: 0
  }
  inner_product_param {
    num_output: 4096
    weight_filler {
      type: "gaussian"
      std: 0.005
    }
    bias_filler {
      type: "constant"
      value: 1
    }
  }
}
layer {
  name: "relu6"
  type: "ReLU"
  bottom: "fc6"
  top: "fc6"
}
layer {
  name: "drop6"
  type: "Dropout"
  bottom: "fc6"
  top: "fc6"
  dropout_param {
    dropout_ratio: 0.5
  }
}
layer {
  name: "fc7"
  type: "InnerProduct"
  bottom: "fc6"
  top: "fc7"
  param {
    lr_mult: 1
    decay_mult: 1
  }
  param {
    lr_mult: 2
    decay_mult: 0
  }
  inner_product_param {
    num_output: 4096
    weight_filler {
      type: "gaussian"
      std: 0.005
    }
    bias_filler {
      type: "constant"
      value: 1
    }
  }
}
layer {
  name: "relu7"
  type: "ReLU"
  bottom: "fc7"
  top: "fc7"
}
layer {
  name: "drop7"
  type: "Dropout"
  bottom: "fc7"
  top: "fc7"
  dropout_param {
    dropout_ratio: 0.5
  }
}
layer {
  name: "fc8"
  type: "InnerProduct"
  bottom: "fc7"
  top: "fc8"
  param {
    lr_mult: 1
    decay_mult: 1
  }
  param {
    lr_mult: 2
    decay_mult: 0
  }
  inner_product_param {
    num_output: 10
    weight_filler {
      type: "gaussian"
      std: 0.01
    }
    bias_filler {
      type: "constant"
      value: 0
    }
  }
}
layer {
  name: "loss"
  type: "SoftmaxWithLoss"
  bottom: "fc8"
  bottom: "label"
  top: "loss"
}
I0123 18:56:40.938284 36979 layer_factory.hpp:77] Creating layer data
I0123 18:56:40.971915 36979 db_lmdb.cpp:35] Opened lmdb train_lmdb
I0123 18:56:40.973989 36979 net.cpp:86] Creating Layer data
I0123 18:56:40.974020 36979 net.cpp:382] data -> data
I0123 18:56:40.974061 36979 net.cpp:382] data -> label
I0123 18:56:40.974097 36979 data_transformer.cpp:25] Loading mean file from: mean.binaryproto
I0123 18:56:40.986507 36979 data_layer.cpp:45] output data size: 256,3,227,227
I0123 18:56:41.429388 36979 net.cpp:124] Setting up data
I0123 18:56:41.429462 36979 net.cpp:131] Top shape: 256 3 227 227 (39574272)
I0123 18:56:41.429476 36979 net.cpp:131] Top shape: 256 (256)
I0123 18:56:41.429482 36979 net.cpp:139] Memory required for data: 158298112
I0123 18:56:41.429498 36979 layer_factory.hpp:77] Creating layer conv1
I0123 18:56:41.429540 36979 net.cpp:86] Creating Layer conv1
I0123 18:56:41.429563 36979 net.cpp:408] conv1 <- data
I0123 18:56:41.429592 36979 net.cpp:382] conv1 -> conv1
I0123 18:56:42.103296 36979 net.cpp:124] Setting up conv1
I0123 18:56:42.103359 36979 net.cpp:131] Top shape: 256 96 55 55 (74342400)
I0123 18:56:42.103368 36979 net.cpp:139] Memory required for data: 455667712
I0123 18:56:42.103402 36979 layer_factory.hpp:77] Creating layer relu1
I0123 18:56:42.103459 36979 net.cpp:86] Creating Layer relu1
I0123 18:56:42.103472 36979 net.cpp:408] relu1 <- conv1
I0123 18:56:42.103482 36979 net.cpp:369] relu1 -> conv1 (in-place)
I0123 18:56:42.103849 36979 net.cpp:124] Setting up relu1
I0123 18:56:42.103868 36979 net.cpp:131] Top shape: 256 96 55 55 (74342400)
I0123 18:56:42.103875 36979 net.cpp:139] Memory required for data: 753037312
I0123 18:56:42.103881 36979 layer_factory.hpp:77] Creating layer pool1
I0123 18:56:42.103906 36979 net.cpp:86] Creating Layer pool1
I0123 18:56:42.103914 36979 net.cpp:408] pool1 <- conv1
I0123 18:56:42.103924 36979 net.cpp:382] pool1 -> pool1
I0123 18:56:42.104019 36979 net.cpp:124] Setting up pool1
I0123 18:56:42.104033 36979 net.cpp:131] Top shape: 256 96 27 27 (17915904)
I0123 18:56:42.104039 36979 net.cpp:139] Memory required for data: 824700928
I0123 18:56:42.104045 36979 layer_factory.hpp:77] Creating layer norm1
I0123 18:56:42.104084 36979 net.cpp:86] Creating Layer norm1
I0123 18:56:42.104094 36979 net.cpp:408] norm1 <- pool1
I0123 18:56:42.104104 36979 net.cpp:382] norm1 -> norm1
I0123 18:56:42.104348 36979 net.cpp:124] Setting up norm1
I0123 18:56:42.104364 36979 net.cpp:131] Top shape: 256 96 27 27 (17915904)
I0123 18:56:42.104404 36979 net.cpp:139] Memory required for data: 896364544
I0123 18:56:42.104411 36979 layer_factory.hpp:77] Creating layer conv2
I0123 18:56:42.104440 36979 net.cpp:86] Creating Layer conv2
I0123 18:56:42.104449 36979 net.cpp:408] conv2 <- norm1
I0123 18:56:42.104460 36979 net.cpp:382] conv2 -> conv2
I0123 18:56:42.118793 36979 net.cpp:124] Setting up conv2
I0123 18:56:42.118834 36979 net.cpp:131] Top shape: 256 256 27 27 (47775744)
I0123 18:56:42.118840 36979 net.cpp:139] Memory required for data: 1087467520
I0123 18:56:42.118856 36979 layer_factory.hpp:77] Creating layer relu2
I0123 18:56:42.118868 36979 net.cpp:86] Creating Layer relu2
I0123 18:56:42.118875 36979 net.cpp:408] relu2 <- conv2
I0123 18:56:42.118883 36979 net.cpp:369] relu2 -> conv2 (in-place)
I0123 18:56:42.119084 36979 net.cpp:124] Setting up relu2
I0123 18:56:42.119101 36979 net.cpp:131] Top shape: 256 256 27 27 (47775744)
I0123 18:56:42.119105 36979 net.cpp:139] Memory required for data: 1278570496
I0123 18:56:42.119112 36979 layer_factory.hpp:77] Creating layer pool2
I0123 18:56:42.119123 36979 net.cpp:86] Creating Layer pool2
I0123 18:56:42.119134 36979 net.cpp:408] pool2 <- conv2
I0123 18:56:42.119148 36979 net.cpp:382] pool2 -> pool2
I0123 18:56:42.119204 36979 net.cpp:124] Setting up pool2
I0123 18:56:42.119215 36979 net.cpp:131] Top shape: 256 256 13 13 (11075584)
I0123 18:56:42.119221 36979 net.cpp:139] Memory required for data: 1322872832
I0123 18:56:42.119227 36979 layer_factory.hpp:77] Creating layer norm2
I0123 18:56:42.119238 36979 net.cpp:86] Creating Layer norm2
I0123 18:56:42.119247 36979 net.cpp:408] norm2 <- pool2
I0123 18:56:42.119256 36979 net.cpp:382] norm2 -> norm2
I0123 18:56:42.119623 36979 net.cpp:124] Setting up norm2
I0123 18:56:42.119642 36979 net.cpp:131] Top shape: 256 256 13 13 (11075584)
I0123 18:56:42.119647 36979 net.cpp:139] Memory required for data: 1367175168
I0123 18:56:42.119654 36979 layer_factory.hpp:77] Creating layer conv3
I0123 18:56:42.119668 36979 net.cpp:86] Creating Layer conv3
I0123 18:56:42.119675 36979 net.cpp:408] conv3 <- norm2
I0123 18:56:42.119684 36979 net.cpp:382] conv3 -> conv3
I0123 18:56:42.168190 36979 net.cpp:124] Setting up conv3
I0123 18:56:42.168229 36979 net.cpp:131] Top shape: 256 384 13 13 (16613376)
I0123 18:56:42.168237 36979 net.cpp:139] Memory required for data: 1433628672
I0123 18:56:42.168259 36979 layer_factory.hpp:77] Creating layer relu3
I0123 18:56:42.168273 36979 net.cpp:86] Creating Layer relu3
I0123 18:56:42.168280 36979 net.cpp:408] relu3 <- conv3
I0123 18:56:42.168289 36979 net.cpp:369] relu3 -> conv3 (in-place)
I0123 18:56:42.168510 36979 net.cpp:124] Setting up relu3
I0123 18:56:42.168526 36979 net.cpp:131] Top shape: 256 384 13 13 (16613376)
I0123 18:56:42.168532 36979 net.cpp:139] Memory required for data: 1500082176
I0123 18:56:42.168539 36979 layer_factory.hpp:77] Creating layer conv4
I0123 18:56:42.168557 36979 net.cpp:86] Creating Layer conv4
I0123 18:56:42.168565 36979 net.cpp:408] conv4 <- conv3
I0123 18:56:42.168576 36979 net.cpp:382] conv4 -> conv4
I0123 18:56:42.196063 36979 net.cpp:124] Setting up conv4
I0123 18:56:42.196096 36979 net.cpp:131] Top shape: 256 384 13 13 (16613376)
I0123 18:56:42.196104 36979 net.cpp:139] Memory required for data: 1566535680
I0123 18:56:42.196115 36979 layer_factory.hpp:77] Creating layer relu4
I0123 18:56:42.196127 36979 net.cpp:86] Creating Layer relu4
I0123 18:56:42.196135 36979 net.cpp:408] relu4 <- conv4
I0123 18:56:42.196142 36979 net.cpp:369] relu4 -> conv4 (in-place)
I0123 18:56:42.196367 36979 net.cpp:124] Setting up relu4
I0123 18:56:42.196383 36979 net.cpp:131] Top shape: 256 384 13 13 (16613376)
I0123 18:56:42.196389 36979 net.cpp:139] Memory required for data: 1632989184
I0123 18:56:42.196395 36979 layer_factory.hpp:77] Creating layer conv5
I0123 18:56:42.196413 36979 net.cpp:86] Creating Layer conv5
I0123 18:56:42.196421 36979 net.cpp:408] conv5 <- conv4
I0123 18:56:42.196434 36979 net.cpp:382] conv5 -> conv5
I0123 18:56:42.215852 36979 net.cpp:124] Setting up conv5
I0123 18:56:42.215911 36979 net.cpp:131] Top shape: 256 256 13 13 (11075584)
I0123 18:56:42.215919 36979 net.cpp:139] Memory required for data: 1677291520
I0123 18:56:42.215937 36979 layer_factory.hpp:77] Creating layer relu5
I0123 18:56:42.215946 36979 net.cpp:86] Creating Layer relu5
I0123 18:56:42.215965 36979 net.cpp:408] relu5 <- conv5
I0123 18:56:42.215973 36979 net.cpp:369] relu5 -> conv5 (in-place)
I0123 18:56:42.216194 36979 net.cpp:124] Setting up relu5
I0123 18:56:42.216213 36979 net.cpp:131] Top shape: 256 256 13 13 (11075584)
I0123 18:56:42.216224 36979 net.cpp:139] Memory required for data: 1721593856
I0123 18:56:42.216230 36979 layer_factory.hpp:77] Creating layer pool5
I0123 18:56:42.216240 36979 net.cpp:86] Creating Layer pool5
I0123 18:56:42.216246 36979 net.cpp:408] pool5 <- conv5
I0123 18:56:42.216258 36979 net.cpp:382] pool5 -> pool5
I0123 18:56:42.216315 36979 net.cpp:124] Setting up pool5
I0123 18:56:42.216328 36979 net.cpp:131] Top shape: 256 256 6 6 (2359296)
I0123 18:56:42.216334 36979 net.cpp:139] Memory required for data: 1731031040
I0123 18:56:42.216339 36979 layer_factory.hpp:77] Creating layer fc6
I0123 18:56:42.216361 36979 net.cpp:86] Creating Layer fc6
I0123 18:56:42.216370 36979 net.cpp:408] fc6 <- pool5
I0123 18:56:42.216382 36979 net.cpp:382] fc6 -> fc6
I0123 18:56:43.724323 36979 net.cpp:124] Setting up fc6
I0123 18:56:43.724385 36979 net.cpp:131] Top shape: 256 4096 (1048576)
I0123 18:56:43.724392 36979 net.cpp:139] Memory required for data: 1735225344
I0123 18:56:43.724414 36979 layer_factory.hpp:77] Creating layer relu6
I0123 18:56:43.724436 36979 net.cpp:86] Creating Layer relu6
I0123 18:56:43.724447 36979 net.cpp:408] relu6 <- fc6
I0123 18:56:43.724458 36979 net.cpp:369] relu6 -> fc6 (in-place)
I0123 18:56:43.725133 36979 net.cpp:124] Setting up relu6
I0123 18:56:43.725152 36979 net.cpp:131] Top shape: 256 4096 (1048576)
I0123 18:56:43.725157 36979 net.cpp:139] Memory required for data: 1739419648
I0123 18:56:43.725184 36979 layer_factory.hpp:77] Creating layer drop6
I0123 18:56:43.725208 36979 net.cpp:86] Creating Layer drop6
I0123 18:56:43.725217 36979 net.cpp:408] drop6 <- fc6
I0123 18:56:43.725227 36979 net.cpp:369] drop6 -> fc6 (in-place)
I0123 18:56:43.725270 36979 net.cpp:124] Setting up drop6
I0123 18:56:43.725282 36979 net.cpp:131] Top shape: 256 4096 (1048576)
I0123 18:56:43.725291 36979 net.cpp:139] Memory required for data: 1743613952
I0123 18:56:43.725296 36979 layer_factory.hpp:77] Creating layer fc7
I0123 18:56:43.725322 36979 net.cpp:86] Creating Layer fc7
I0123 18:56:43.725330 36979 net.cpp:408] fc7 <- fc6
I0123 18:56:43.725343 36979 net.cpp:382] fc7 -> fc7
I0123 18:56:44.386247 36979 net.cpp:124] Setting up fc7
I0123 18:56:44.386310 36979 net.cpp:131] Top shape: 256 4096 (1048576)
I0123 18:56:44.386317 36979 net.cpp:139] Memory required for data: 1747808256
I0123 18:56:44.386345 36979 layer_factory.hpp:77] Creating layer relu7
I0123 18:56:44.386370 36979 net.cpp:86] Creating Layer relu7
I0123 18:56:44.386386 36979 net.cpp:408] relu7 <- fc7
I0123 18:56:44.386407 36979 net.cpp:369] relu7 -> fc7 (in-place)
I0123 18:56:44.387267 36979 net.cpp:124] Setting up relu7
I0123 18:56:44.387284 36979 net.cpp:131] Top shape: 256 4096 (1048576)
I0123 18:56:44.387290 36979 net.cpp:139] Memory required for data: 1752002560
I0123 18:56:44.387300 36979 layer_factory.hpp:77] Creating layer drop7
I0123 18:56:44.387315 36979 net.cpp:86] Creating Layer drop7
I0123 18:56:44.387321 36979 net.cpp:408] drop7 <- fc7
I0123 18:56:44.387331 36979 net.cpp:369] drop7 -> fc7 (in-place)
I0123 18:56:44.387363 36979 net.cpp:124] Setting up drop7
I0123 18:56:44.387375 36979 net.cpp:131] Top shape: 256 4096 (1048576)
I0123 18:56:44.387382 36979 net.cpp:139] Memory required for data: 1756196864
I0123 18:56:44.387390 36979 layer_factory.hpp:77] Creating layer fc8
I0123 18:56:44.387415 36979 net.cpp:86] Creating Layer fc8
I0123 18:56:44.387423 36979 net.cpp:408] fc8 <- fc7
I0123 18:56:44.387439 36979 net.cpp:382] fc8 -> fc8
I0123 18:56:44.389205 36979 net.cpp:124] Setting up fc8
I0123 18:56:44.389277 36979 net.cpp:131] Top shape: 256 10 (2560)
I0123 18:56:44.389284 36979 net.cpp:139] Memory required for data: 1756207104
I0123 18:56:44.389294 36979 layer_factory.hpp:77] Creating layer loss
I0123 18:56:44.389312 36979 net.cpp:86] Creating Layer loss
I0123 18:56:44.389320 36979 net.cpp:408] loss <- fc8
I0123 18:56:44.389328 36979 net.cpp:408] loss <- label
I0123 18:56:44.389343 36979 net.cpp:382] loss -> loss
I0123 18:56:44.389369 36979 layer_factory.hpp:77] Creating layer loss
…
I0123 18:56:44.396147 36979 solver.cpp:173] Creating test net (#0) specified by net file: caffenet_train.prototxt
I0123 18:56:44.396216 36979 net.cpp:296] The NetState phase (1) differed from the phase (0) specified by a rule in layer data
I0123 18:56:44.396493 36979 net.cpp:53] Initializing net from parameters: 
name: "CaffeNet"
state {
  phase: TEST
}
layer {
  name: "data"
  type: "Data"
  top: "data"
  top: "label"
  include {
    phase: TEST
  }
  transform_param {
    mirror: false
    crop_size: 227
    mean_file: "mean.binaryproto"
  }
  data_param {
    source: "val_lmdb"
    batch_size: 50
    backend: LMDB
  }
}
layer {
  name: "conv1"
  type: "Convolution"
  bottom: "data"
  top: "conv1"
  param {
    lr_mult: 1
    decay_mult: 1
  }
  param {
    lr_mult: 2
    decay_mult: 0
  }
  convolution_param {
    num_output: 96
    kernel_size: 11
    stride: 4
    weight_filler {
      type: "gaussian"
      std: 0.01
    }
    bias_filler {
      type: "constant"
      value: 0
    }
  }
}
layer {
  name: "relu1"
  type: "ReLU"
  bottom: "conv1"
  top: "conv1"
}
layer {
  name: "pool1"
  type: "Pooling"
  bottom: "conv1"
  top: "pool1"
  pooling_param {
    pool: MAX
    kernel_size: 3
    stride: 2
  }
}
layer {
  name: "norm1"
  type: "LRN"
  bottom: "pool1"
  top: "norm1"
  lrn_param {
    local_size: 5
    alpha: 0.0001
    beta: 0.75
  }
}
layer {
  name: "conv2"
  type: "Convolution"
  bottom: "norm1"
  top: "conv2"
  param {
    lr_mult: 1
    decay_mult: 1
  }
  param {
    lr_mult: 2
    decay_mult: 0
  }
  convolution_param {
    num_output: 256
    pad: 2
    kernel_size: 5
    group: 2
    weight_filler {
      type: "gaussian"
      std: 0.01
    }
    bias_filler {
      type: "constant"
      value: 1
    }
  }
}
layer {
  name: "relu2"
  type: "ReLU"
  bottom: "conv2"
  top: "conv2"
}
layer {
  name: "pool2"
  type: "Pooling"
  bottom: "conv2"
  top: "pool2"
  pooling_param {
    pool: MAX
    kernel_size: 3
    stride: 2
  }
}
layer {
  name: "norm2"
  type: "LRN"
  bottom: "pool2"
  top: "norm2"
  lrn_param {
    local_size: 5
    alpha: 0.0001
    beta: 0.75
  }
}
layer {
  name: "conv3"
  type: "Convolution"
  bottom: "norm2"
  top: "conv3"
  param {
    lr_mult: 1
    decay_mult: 1
  }
  param {
    lr_mult: 2
    decay_mult: 0
  }
  convolution_param {
    num_output: 384
    pad: 1
    kernel_size: 3
    weight_filler {
      type: "gaussian"
      std: 0.01
    }
    bias_filler {
      type: "constant"
      value: 0
    }
  }
}
layer {
  name: "relu3"
  type: "ReLU"
  bottom: "conv3"
  top: "conv3"
}
layer {
  name: "conv4"
  type: "Convolution"
  bottom: "conv3"
  top: "conv4"
  param {
    lr_mult: 1
    decay_mult: 1
  }
  param {
    lr_mult: 2
    decay_mult: 0
  }
  convolution_param {
    num_output: 384
    pad: 1
    kernel_size: 3
    group: 2
    weight_filler {
      type: "gaussian"
      std: 0.01
    }
    bias_filler {
      type: "constant"
      value: 1
    }
  }
}
layer {
  name: "relu4"
  type: "ReLU"
  bottom: "conv4"
  top: "conv4"
}
layer {
  name: "conv5"
  type: "Convolution"
  bottom: "conv4"
  top: "conv5"
  param {
    lr_mult: 1
    decay_mult: 1
  }
  param {
    lr_mult: 2
    decay_mult: 0
  }
  convolution_param {
    num_output: 256
    pad: 1
    kernel_size: 3
    group: 2
    weight_filler {
      type: "gaussian"
      std: 0.01
    }
    bias_filler {
      type: "constant"
      value: 1
    }
  }
}
layer {
  name: "relu5"
  type: "ReLU"
  bottom: "conv5"
  top: "conv5"
}
layer {
  name: "pool5"
  type: "Pooling"
  bottom: "conv5"
  top: "pool5"
  pooling_param {
    pool: MAX
    kernel_size: 3
    stride: 2
  }
}
layer {
  name: "fc6"
  type: "InnerProduct"
  bottom: "pool5"
  top: "fc6"
  param {
    lr_mult: 1
    decay_mult: 1
  }
  param {
    lr_mult: 2
    decay_mult: 0
  }
  inner_product_param {
    num_output: 4096
    weight_filler {
      type: "gaussian"
      std: 0.005
    }
    bias_filler {
      type: "constant"
      value: 1
    }
  }
}
layer {
  name: "relu6"
  type: "ReLU"
  bottom: "fc6"
  top: "fc6"
}
layer {
  name: "drop6"
  type: "Dropout"
  bottom: "fc6"
  top: "fc6"
  dropout_param {
    dropout_ratio: 0.5
  }
}
layer {
  name: "fc7"
  type: "InnerProduct"
  bottom: "fc6"
  top: "fc7"
  param {
    lr_mult: 1
    decay_mult: 1
  }
  param {
    lr_mult: 2
    decay_mult: 0
  }
  inner_product_param {
    num_output: 4096
    weight_filler {
      type: "gaussian"
      std: 0.005
    }
    bias_filler {
      type: "constant"
      value: 1
    }
  }
}
layer {
  name: "relu7"
  type: "ReLU"
  bottom: "fc7"
  top: "fc7"
}
layer {
  name: "drop7"
  type: "Dropout"
  bottom: "fc7"
  top: "fc7"
  dropout_param {
    dropout_ratio: 0.5
  }
}
layer {
  name: "fc8"
  type: "InnerProduct"
  bottom: "fc7"
  top: "fc8"
  param {
    lr_mult: 1
    decay_mult: 1
  }
  param {
    lr_mult: 2
    decay_mult: 0
  }
  inner_product_param {
    num_output: 10
    weight_filler {
      type: "gaussian"
      std: 0.01
    }
    bias_filler {
      type: "constant"
      value: 0
    }
  }
}
layer {
  name: "accuracy"
  type: "Accuracy"
  bottom: "fc8"
  bottom: "label"
  top: "accuracy"
  include {
    phase: TEST
  }
}
layer {
  name: "loss"
  type: "SoftmaxWithLoss"
  bottom: "fc8"
  bottom: "label"
  top: "loss"
}
I0123 18:56:44.396723 36979 layer_factory.hpp:77] Creating layer data
I0123 18:56:44.444274 36979 db_lmdb.cpp:35] Opened lmdb val_lmdb
I0123 18:56:44.445394 36979 net.cpp:86] Creating Layer data
I0123 18:56:44.445459 36979 net.cpp:382] data -> data
I0123 18:56:44.445487 36979 net.cpp:382] data -> label
I0123 18:56:44.445502 36979 data_transformer.cpp:25] Loading mean file from: mean.binaryproto
I0123 18:56:44.457312 36979 data_layer.cpp:45] output data size: 50,3,227,227
I0123 18:56:44.547518 36979 net.cpp:124] Setting up data
I0123 18:56:44.547571 36979 net.cpp:131] Top shape: 50 3 227 227 (7729350)
I0123 18:56:44.547583 36979 net.cpp:131] Top shape: 50 (50)
I0123 18:56:44.547592 36979 net.cpp:139] Memory required for data: 30917600
I0123 18:56:44.547600 36979 layer_factory.hpp:77] Creating layer label_data_1_split
I0123 18:56:44.547621 36979 net.cpp:86] Creating Layer label_data_1_split
I0123 18:56:44.547627 36979 net.cpp:408] label_data_1_split <- label
I0123 18:56:44.547637 36979 net.cpp:382] label_data_1_split -> label_data_1_split_0
I0123 18:56:44.547650 36979 net.cpp:382] label_data_1_split -> label_data_1_split_1
I0123 18:56:44.547783 36979 net.cpp:124] Setting up label_data_1_split
I0123 18:56:44.547798 36979 net.cpp:131] Top shape: 50 (50)
I0123 18:56:44.547806 36979 net.cpp:131] Top shape: 50 (50)
I0123 18:56:44.547817 36979 net.cpp:139] Memory required for data: 30918000
I0123 18:56:44.547823 36979 layer_factory.hpp:77] Creating layer conv1
I0123 18:56:44.547843 36979 net.cpp:86] Creating Layer conv1
I0123 18:56:44.547852 36979 net.cpp:408] conv1 <- data
I0123 18:56:44.547864 36979 net.cpp:382] conv1 -> conv1
I0123 18:56:44.553648 36979 net.cpp:124] Setting up conv1
I0123 18:56:44.553684 36979 net.cpp:131] Top shape: 50 96 55 55 (14520000)
I0123 18:56:44.553692 36979 net.cpp:139] Memory required for data: 88998000
I0123 18:56:44.553709 36979 layer_factory.hpp:77] Creating layer relu1
I0123 18:56:44.553720 36979 net.cpp:86] Creating Layer relu1
I0123 18:56:44.553726 36979 net.cpp:408] relu1 <- conv1
I0123 18:56:44.553736 36979 net.cpp:369] relu1 -> conv1 (in-place)
I0123 18:56:44.553959 36979 net.cpp:124] Setting up relu1
I0123 18:56:44.553977 36979 net.cpp:131] Top shape: 50 96 55 55 (14520000)
I0123 18:56:44.553982 36979 net.cpp:139] Memory required for data: 147078000
I0123 18:56:44.553988 36979 layer_factory.hpp:77] Creating layer pool1
I0123 18:56:44.554002 36979 net.cpp:86] Creating Layer pool1
I0123 18:56:44.554009 36979 net.cpp:408] pool1 <- conv1
I0123 18:56:44.554018 36979 net.cpp:382] pool1 -> pool1
I0123 18:56:44.554085 36979 net.cpp:124] Setting up pool1
I0123 18:56:44.554098 36979 net.cpp:131] Top shape: 50 96 27 27 (3499200)
I0123 18:56:44.554105 36979 net.cpp:139] Memory required for data: 161074800
I0123 18:56:44.554111 36979 layer_factory.hpp:77] Creating layer norm1
I0123 18:56:44.554131 36979 net.cpp:86] Creating Layer norm1
I0123 18:56:44.554138 36979 net.cpp:408] norm1 <- pool1
I0123 18:56:44.554147 36979 net.cpp:382] norm1 -> norm1
I0123 18:56:44.554565 36979 net.cpp:124] Setting up norm1
I0123 18:56:44.554584 36979 net.cpp:131] Top shape: 50 96 27 27 (3499200)
I0123 18:56:44.554591 36979 net.cpp:139] Memory required for data: 175071600
I0123 18:56:44.554597 36979 layer_factory.hpp:77] Creating layer conv2
I0123 18:56:44.554612 36979 net.cpp:86] Creating Layer conv2
I0123 18:56:44.554620 36979 net.cpp:408] conv2 <- norm1
I0123 18:56:44.554631 36979 net.cpp:382] conv2 -> conv2
I0123 18:56:44.569191 36979 net.cpp:124] Setting up conv2
I0123 18:56:44.569232 36979 net.cpp:131] Top shape: 50 256 27 27 (9331200)
I0123 18:56:44.569239 36979 net.cpp:139] Memory required for data: 212396400
I0123 18:56:44.569262 36979 layer_factory.hpp:77] Creating layer relu2
I0123 18:56:44.569277 36979 net.cpp:86] Creating Layer relu2
I0123 18:56:44.569284 36979 net.cpp:408] relu2 <- conv2
I0123 18:56:44.569295 36979 net.cpp:369] relu2 -> conv2 (in-place)
I0123 18:56:44.569671 36979 net.cpp:124] Setting up relu2
I0123 18:56:44.569701 36979 net.cpp:131] Top shape: 50 256 27 27 (9331200)
I0123 18:56:44.569707 36979 net.cpp:139] Memory required for data: 249721200
I0123 18:56:44.569713 36979 layer_factory.hpp:77] Creating layer pool2
I0123 18:56:44.569728 36979 net.cpp:86] Creating Layer pool2
I0123 18:56:44.569798 36979 net.cpp:408] pool2 <- conv2
I0123 18:56:44.569810 36979 net.cpp:382] pool2 -> pool2
I0123 18:56:44.569877 36979 net.cpp:124] Setting up pool2
I0123 18:56:44.569891 36979 net.cpp:131] Top shape: 50 256 13 13 (2163200)
I0123 18:56:44.569897 36979 net.cpp:139] Memory required for data: 258374000
I0123 18:56:44.569903 36979 layer_factory.hpp:77] Creating layer norm2
I0123 18:56:44.569916 36979 net.cpp:86] Creating Layer norm2
I0123 18:56:44.569924 36979 net.cpp:408] norm2 <- pool2
I0123 18:56:44.569933 36979 net.cpp:382] norm2 -> norm2
I0123 18:56:44.570363 36979 net.cpp:124] Setting up norm2
I0123 18:56:44.570381 36979 net.cpp:131] Top shape: 50 256 13 13 (2163200)
I0123 18:56:44.570387 36979 net.cpp:139] Memory required for data: 267026800
I0123 18:56:44.570394 36979 layer_factory.hpp:77] Creating layer conv3
I0123 18:56:44.570412 36979 net.cpp:86] Creating Layer conv3
I0123 18:56:44.570421 36979 net.cpp:408] conv3 <- norm2
I0123 18:56:44.570432 36979 net.cpp:382] conv3 -> conv3
I0123 18:56:44.607199 36979 net.cpp:124] Setting up conv3
I0123 18:56:44.607252 36979 net.cpp:131] Top shape: 50 384 13 13 (3244800)
I0123 18:56:44.607265 36979 net.cpp:139] Memory required for data: 280006000
I0123 18:56:44.607302 36979 layer_factory.hpp:77] Creating layer relu3
I0123 18:56:44.607328 36979 net.cpp:86] Creating Layer relu3
I0123 18:56:44.607347 36979 net.cpp:408] relu3 <- conv3
I0123 18:56:44.607367 36979 net.cpp:369] relu3 -> conv3 (in-place)
I0123 18:56:44.607789 36979 net.cpp:124] Setting up relu3
I0123 18:56:44.607811 36979 net.cpp:131] Top shape: 50 384 13 13 (3244800)
I0123 18:56:44.607823 36979 net.cpp:139] Memory required for data: 292985200
I0123 18:56:44.607834 36979 layer_factory.hpp:77] Creating layer conv4
I0123 18:56:44.607864 36979 net.cpp:86] Creating Layer conv4
I0123 18:56:44.607880 36979 net.cpp:408] conv4 <- conv3
I0123 18:56:44.607900 36979 net.cpp:382] conv4 -> conv4
I0123 18:56:44.636963 36979 net.cpp:124] Setting up conv4
I0123 18:56:44.637017 36979 net.cpp:131] Top shape: 50 384 13 13 (3244800)
I0123 18:56:44.637030 36979 net.cpp:139] Memory required for data: 305964400
I0123 18:56:44.637054 36979 layer_factory.hpp:77] Creating layer relu4
I0123 18:56:44.637079 36979 net.cpp:86] Creating Layer relu4
I0123 18:56:44.637094 36979 net.cpp:408] relu4 <- conv4
I0123 18:56:44.637126 36979 net.cpp:369] relu4 -> conv4 (in-place)
I0123 18:56:44.637553 36979 net.cpp:124] Setting up relu4
I0123 18:56:44.637575 36979 net.cpp:131] Top shape: 50 384 13 13 (3244800)
I0123 18:56:44.637599 36979 net.cpp:139] Memory required for data: 318943600
I0123 18:56:44.637611 36979 layer_factory.hpp:77] Creating layer conv5
I0123 18:56:44.637640 36979 net.cpp:86] Creating Layer conv5
I0123 18:56:44.637656 36979 net.cpp:408] conv5 <- conv4
I0123 18:56:44.637677 36979 net.cpp:382] conv5 -> conv5
I0123 18:56:44.657856 36979 net.cpp:124] Setting up conv5
I0123 18:56:44.657917 36979 net.cpp:131] Top shape: 50 256 13 13 (2163200)
I0123 18:56:44.657929 36979 net.cpp:139] Memory required for data: 327596400
I0123 18:56:44.657975 36979 layer_factory.hpp:77] Creating layer relu5
I0123 18:56:44.658010 36979 net.cpp:86] Creating Layer relu5
I0123 18:56:44.658027 36979 net.cpp:408] relu5 <- conv5
I0123 18:56:44.658048 36979 net.cpp:369] relu5 -> conv5 (in-place)
I0123 18:56:44.658334 36979 net.cpp:124] Setting up relu5
I0123 18:56:44.658360 36979 net.cpp:131] Top shape: 50 256 13 13 (2163200)
I0123 18:56:44.658378 36979 net.cpp:139] Memory required for data: 336249200
I0123 18:56:44.658390 36979 layer_factory.hpp:77] Creating layer pool5
I0123 18:56:44.658416 36979 net.cpp:86] Creating Layer pool5
I0123 18:56:44.658438 36979 net.cpp:408] pool5 <- conv5
I0123 18:56:44.658459 36979 net.cpp:382] pool5 -> pool5
I0123 18:56:44.658563 36979 net.cpp:124] Setting up pool5
I0123 18:56:44.658583 36979 net.cpp:131] Top shape: 50 256 6 6 (460800)
I0123 18:56:44.658593 36979 net.cpp:139] Memory required for data: 338092400
I0123 18:56:44.658605 36979 layer_factory.hpp:77] Creating layer fc6
I0123 18:56:44.658634 36979 net.cpp:86] Creating Layer fc6
I0123 18:56:44.658695 36979 net.cpp:408] fc6 <- pool5
I0123 18:56:44.658720 36979 net.cpp:382] fc6 -> fc6
I0123 18:56:46.166728 36979 net.cpp:124] Setting up fc6
I0123 18:56:46.166826 36979 net.cpp:131] Top shape: 50 4096 (204800)
I0123 18:56:46.166837 36979 net.cpp:139] Memory required for data: 338911600
I0123 18:56:46.166887 36979 layer_factory.hpp:77] Creating layer relu6
I0123 18:56:46.166980 36979 net.cpp:86] Creating Layer relu6
I0123 18:56:46.167021 36979 net.cpp:408] relu6 <- fc6
I0123 18:56:46.167055 36979 net.cpp:369] relu6 -> fc6 (in-place)
I0123 18:56:46.168659 36979 net.cpp:124] Setting up relu6
I0123 18:56:46.168684 36979 net.cpp:131] Top shape: 50 4096 (204800)
I0123 18:56:46.168695 36979 net.cpp:139] Memory required for data: 339730800
I0123 18:56:46.168718 36979 layer_factory.hpp:77] Creating layer drop6
I0123 18:56:46.168745 36979 net.cpp:86] Creating Layer drop6
I0123 18:56:46.168761 36979 net.cpp:408] drop6 <- fc6
I0123 18:56:46.168776 36979 net.cpp:369] drop6 -> fc6 (in-place)
I0123 18:56:46.168877 36979 net.cpp:124] Setting up drop6
I0123 18:56:46.168896 36979 net.cpp:131] Top shape: 50 4096 (204800)
I0123 18:56:46.168907 36979 net.cpp:139] Memory required for data: 340550000
I0123 18:56:46.168925 36979 layer_factory.hpp:77] Creating layer fc7
I0123 18:56:46.168958 36979 net.cpp:86] Creating Layer fc7
I0123 18:56:46.168972 36979 net.cpp:408] fc7 <- fc6
I0123 18:56:46.168988 36979 net.cpp:382] fc7 -> fc7
I0123 18:56:46.820777 36979 net.cpp:124] Setting up fc7
I0123 18:56:46.820830 36979 net.cpp:131] Top shape: 50 4096 (204800)
I0123 18:56:46.820840 36979 net.cpp:139] Memory required for data: 341369200
I0123 18:56:46.820881 36979 layer_factory.hpp:77] Creating layer relu7
I0123 18:56:46.820916 36979 net.cpp:86] Creating Layer relu7
I0123 18:56:46.820935 36979 net.cpp:408] relu7 <- fc7
I0123 18:56:46.820953 36979 net.cpp:369] relu7 -> fc7 (in-place)
I0123 18:56:46.821321 36979 net.cpp:124] Setting up relu7
I0123 18:56:46.821341 36979 net.cpp:131] Top shape: 50 4096 (204800)
I0123 18:56:46.821359 36979 net.cpp:139] Memory required for data: 342188400
I0123 18:56:46.821370 36979 layer_factory.hpp:77] Creating layer drop7
I0123 18:56:46.821391 36979 net.cpp:86] Creating Layer drop7
I0123 18:56:46.821418 36979 net.cpp:408] drop7 <- fc7
I0123 18:56:46.821434 36979 net.cpp:369] drop7 -> fc7 (in-place)
I0123 18:56:46.821503 36979 net.cpp:124] Setting up drop7
I0123 18:56:46.821521 36979 net.cpp:131] Top shape: 50 4096 (204800)
I0123 18:56:46.821532 36979 net.cpp:139] Memory required for data: 343007600
I0123 18:56:46.821544 36979 layer_factory.hpp:77] Creating layer fc8
I0123 18:56:46.821586 36979 net.cpp:86] Creating Layer fc8
I0123 18:56:46.821610 36979 net.cpp:408] fc8 <- fc7
I0123 18:56:46.821627 36979 net.cpp:382] fc8 -> fc8
I0123 18:56:46.823467 36979 net.cpp:124] Setting up fc8
I0123 18:56:46.823499 36979 net.cpp:131] Top shape: 50 10 (500)
I0123 18:56:46.823510 36979 net.cpp:139] Memory required for data: 343009600
I0123 18:56:46.823530 36979 layer_factory.hpp:77] Creating layer fc8_fc8_0_split
I0123 18:56:46.823585 36979 net.cpp:86] Creating Layer fc8_fc8_0_split
I0123 18:56:46.823601 36979 net.cpp:408] fc8_fc8_0_split <- fc8
I0123 18:56:46.823618 36979 net.cpp:382] fc8_fc8_0_split -> fc8_fc8_0_split_0
I0123 18:56:46.823637 36979 net.cpp:382] fc8_fc8_0_split -> fc8_fc8_0_split_1
I0123 18:56:46.823720 36979 net.cpp:124] Setting up fc8_fc8_0_split
I0123 18:56:46.823740 36979 net.cpp:131] Top shape: 50 10 (500)
I0123 18:56:46.823757 36979 net.cpp:131] Top shape: 50 10 (500)
I0123 18:56:46.823767 36979 net.cpp:139] Memory required for data: 343013600
I0123 18:56:46.823778 36979 layer_factory.hpp:77] Creating layer accuracy
I0123 18:56:46.823812 36979 net.cpp:86] Creating Layer accuracy
I0123 18:56:46.823825 36979 net.cpp:408] accuracy <- fc8_fc8_0_split_0
I0123 18:56:46.823839 36979 net.cpp:408] accuracy <- label_data_1_split_0
I0123 18:56:46.823866 36979 net.cpp:382] accuracy -> accuracy
…
