…
I0130 20:52:06.098011 34322 net.cpp:296] The NetState phase (0) differed from the phase (1) specified by a rule in layer data
I0130 20:52:06.098057 34322 net.cpp:296] The NetState phase (0) differed from the phase (1) specified by a rule in layer accuracy
I0130 20:52:06.098318 34322 net.cpp:53] Initializing net from parameters: 
name: "CaffeNet"
state {
  phase: TRAIN
  level: 0
  stage: ""
}
layer {
  name: "data"
  type: "Data"
  top: "data"
  top: "label"
  include {
    phase: TRAIN
  }
  transform_param {
    mirror: true
    crop_size: 227
    mean_file: "../mean.binaryproto"
  }
  data_param {
    source: "../train_lmdb"
    batch_size: 256
    backend: LMDB
  }
}
layer {
  name: "conv1"
  type: "Convolution"
  bottom: "data"
  top: "conv1"
  param {
    lr_mult: 1
    decay_mult: 1
  }
  param {
    lr_mult: 2
    decay_mult: 0
  }
  convolution_param {
    num_output: 96
    kernel_size: 11
    stride: 4
    weight_filler {
      type: "gaussian"
      std: 0.01
    }
    bias_filler {
      type: "constant"
      value: 0
    }
  }
}
layer {
  name: "relu1"
  type: "ReLU"
  bottom: "conv1"
  top: "conv1"
}
layer {
  name: "pool1"
  type: "Pooling"
  bottom: "conv1"
  top: "pool1"
  pooling_param {
    pool: MAX
    kernel_size: 3
    stride: 2
  }
}
layer {
  name: "norm1"
  type: "LRN"
  bottom: "pool1"
  top: "norm1"
  lrn_param {
    local_size: 5
    alpha: 0.0001
    beta: 0.75
  }
}
layer {
  name: "conv2"
  type: "Convolution"
  bottom: "norm1"
  top: "conv2"
  param {
    lr_mult: 1
    decay_mult: 1
  }
  param {
    lr_mult: 2
    decay_mult: 0
  }
  convolution_param {
    num_output: 256
    pad: 2
    kernel_size: 5
    group: 2
    weight_filler {
      type: "gaussian"
      std: 0.01
    }
    bias_filler {
      type: "constant"
      value: 1
    }
  }
}
layer {
  name: "relu2"
  type: "ReLU"
  bottom: "conv2"
  top: "conv2"
}
layer {
  name: "pool2"
  type: "Pooling"
  bottom: "conv2"
  top: "pool2"
  pooling_param {
    pool: MAX
    kernel_size: 3
    stride: 2
  }
}
layer {
  name: "norm2"
  type: "LRN"
  bottom: "pool2"
  top: "norm2"
  lrn_param {
    local_size: 5
    alpha: 0.0001
    beta: 0.75
  }
}
layer {
  name: "conv3"
  type: "Convolution"
  bottom: "norm2"
  top: "conv3"
  param {
    lr_mult: 1
    decay_mult: 1
  }
  param {
    lr_mult: 2
    decay_mult: 0
  }
  convolution_param {
    num_output: 384
    pad: 1
    kernel_size: 3
    weight_filler {
      type: "gaussian"
      std: 0.01
    }
    bias_filler {
      type: "constant"
      value: 0
    }
  }
}
layer {
  name: "relu3"
  type: "ReLU"
  bottom: "conv3"
  top: "conv3"
}
layer {
  name: "conv4"
  type: "Convolution"
  bottom: "conv3"
  top: "conv4"
  param {
    lr_mult: 1
    decay_mult: 1
  }
  param {
    lr_mult: 2
    decay_mult: 0
  }
  convolution_param {
    num_output: 384
    pad: 1
    kernel_size: 3
    group: 2
    weight_filler {
      type: "gaussian"
      std: 0.01
    }
    bias_filler {
      type: "constant"
      value: 1
    }
  }
}
layer {
  name: "relu4"
  type: "ReLU"
  bottom: "conv4"
  top: "conv4"
}
layer {
  name: "conv5"
  type: "Convolution"
  bottom: "conv4"
  top: "conv5"
  param {
    lr_mult: 1
    decay_mult: 1
  }
  param {
    lr_mult: 2
    decay_mult: 0
  }
  convolution_param {
    num_output: 256
    pad: 1
    kernel_size: 3
    group: 2
    weight_filler {
      type: "gaussian"
      std: 0.01
    }
    bias_filler {
      type: "constant"
      value: 1
    }
  }
}
layer {
  name: "relu5"
  type: "ReLU"
  bottom: "conv5"
  top: "conv5"
}
layer {
  name: "pool5"
  type: "Pooling"
  bottom: "conv5"
  top: "pool5"
  pooling_param {
    pool: MAX
    kernel_size: 3
    stride: 2
  }
}
layer {
  name: "fc6"
  type: "InnerProduct"
  bottom: "pool5"
  top: "fc6"
  param {
    lr_mult: 1
    decay_mult: 1
  }
  param {
    lr_mult: 2
    decay_mult: 0
  }
  inner_product_param {
    num_output: 4096
    weight_filler {
      type: "gaussian"
      std: 0.005
    }
    bias_filler {
      type: "constant"
      value: 1
    }
  }
}
layer {
  name: "relu6"
  type: "ReLU"
  bottom: "fc6"
  top: "fc6"
}
layer {
  name: "drop6"
  type: "Dropout"
  bottom: "fc6"
  top: "fc6"
  dropout_param {
    dropout_ratio: 0.5
  }
}
layer {
  name: "fc7"
  type: "InnerProduct"
  bottom: "fc6"
  top: "fc7"
  param {
    lr_mult: 1
    decay_mult: 1
  }
  param {
    lr_mult: 2
    decay_mult: 0
  }
  inner_product_param {
    num_output: 4096
    weight_filler {
      type: "gaussian"
      std: 0.005
    }
    bias_filler {
      type: "constant"
      value: 1
    }
  }
}
layer {
  name: "relu7"
  type: "ReLU"
  bottom: "fc7"
  top: "fc7"
}
layer {
  name: "drop7"
  type: "Dropout"
  bottom: "fc7"
  top: "fc7"
  dropout_param {
    dropout_ratio: 0.5
  }
}
layer {
  name: "fc8"
  type: "InnerProduct"
  bottom: "fc7"
  top: "fc8"
  param {
    lr_mult: 1
    decay_mult: 1
  }
  param {
    lr_mult: 2
    decay_mult: 0
  }
  inner_product_param {
    num_output: 10
    weight_filler {
      type: "gaussian"
      std: 0.01
    }
    bias_filler {
      type: "constant"
      value: 0
    }
  }
}
layer {
  name: "loss"
  type: "SoftmaxWithLoss"
  bottom: "fc8"
  bottom: "label"
  top: "loss"
}
I0130 20:52:06.098534 34322 layer_factory.hpp:77] Creating layer data
I0130 20:52:06.099891 34322 db_lmdb.cpp:35] Opened lmdb ../train_lmdb
I0130 20:52:06.100107 34322 net.cpp:86] Creating Layer data
I0130 20:52:06.100129 34322 net.cpp:382] data -> data
I0130 20:52:06.100169 34322 net.cpp:382] data -> label
I0130 20:52:06.100194 34322 data_transformer.cpp:25] Loading mean file from: ../mean.binaryproto
I0130 20:52:06.105653 34322 data_layer.cpp:45] output data size: 256,3,227,227
I0130 20:52:06.710083 34322 net.cpp:124] Setting up data
I0130 20:52:06.710137 34322 net.cpp:131] Top shape: 256 3 227 227 (39574272)
I0130 20:52:06.710147 34322 net.cpp:131] Top shape: 256 (256)
I0130 20:52:06.710155 34322 net.cpp:139] Memory required for data: 158298112
I0130 20:52:06.710175 34322 layer_factory.hpp:77] Creating layer conv1
I0130 20:52:06.710213 34322 net.cpp:86] Creating Layer conv1
I0130 20:52:06.710223 34322 net.cpp:408] conv1 <- data
I0130 20:52:06.710258 34322 net.cpp:382] conv1 -> conv1
I0130 20:52:07.283382 34322 net.cpp:124] Setting up conv1
I0130 20:52:07.283447 34322 net.cpp:131] Top shape: 256 96 55 55 (74342400)
I0130 20:52:07.283458 34322 net.cpp:139] Memory required for data: 455667712
I0130 20:52:07.283509 34322 layer_factory.hpp:77] Creating layer relu1
I0130 20:52:07.283568 34322 net.cpp:86] Creating Layer relu1
I0130 20:52:07.283586 34322 net.cpp:408] relu1 <- conv1
I0130 20:52:07.283604 34322 net.cpp:369] relu1 -> conv1 (in-place)
I0130 20:52:07.284129 34322 net.cpp:124] Setting up relu1
I0130 20:52:07.284153 34322 net.cpp:131] Top shape: 256 96 55 55 (74342400)
I0130 20:52:07.284163 34322 net.cpp:139] Memory required for data: 753037312
I0130 20:52:07.284174 34322 layer_factory.hpp:77] Creating layer pool1
I0130 20:52:07.284199 34322 net.cpp:86] Creating Layer pool1
I0130 20:52:07.284212 34322 net.cpp:408] pool1 <- conv1
I0130 20:52:07.284231 34322 net.cpp:382] pool1 -> pool1
I0130 20:52:07.284337 34322 net.cpp:124] Setting up pool1
I0130 20:52:07.284358 34322 net.cpp:131] Top shape: 256 96 27 27 (17915904)
I0130 20:52:07.284369 34322 net.cpp:139] Memory required for data: 824700928
I0130 20:52:07.284381 34322 layer_factory.hpp:77] Creating layer norm1
I0130 20:52:07.284415 34322 net.cpp:86] Creating Layer norm1
I0130 20:52:07.284427 34322 net.cpp:408] norm1 <- pool1
I0130 20:52:07.284443 34322 net.cpp:382] norm1 -> norm1
I0130 20:52:07.286487 34322 net.cpp:124] Setting up norm1
I0130 20:52:07.286556 34322 net.cpp:131] Top shape: 256 96 27 27 (17915904)
I0130 20:52:07.286572 34322 net.cpp:139] Memory required for data: 896364544
I0130 20:52:07.286583 34322 layer_factory.hpp:77] Creating layer conv2
I0130 20:52:07.286618 34322 net.cpp:86] Creating Layer conv2
I0130 20:52:07.286630 34322 net.cpp:408] conv2 <- norm1
I0130 20:52:07.286646 34322 net.cpp:382] conv2 -> conv2
I0130 20:52:07.319030 34322 net.cpp:124] Setting up conv2
I0130 20:52:07.319077 34322 net.cpp:131] Top shape: 256 256 27 27 (47775744)
I0130 20:52:07.319088 34322 net.cpp:139] Memory required for data: 1087467520
I0130 20:52:07.319123 34322 layer_factory.hpp:77] Creating layer relu2
I0130 20:52:07.319146 34322 net.cpp:86] Creating Layer relu2
I0130 20:52:07.319161 34322 net.cpp:408] relu2 <- conv2
I0130 20:52:07.319186 34322 net.cpp:369] relu2 -> conv2 (in-place)
I0130 20:52:07.319948 34322 net.cpp:124] Setting up relu2
I0130 20:52:07.319977 34322 net.cpp:131] Top shape: 256 256 27 27 (47775744)
I0130 20:52:07.319986 34322 net.cpp:139] Memory required for data: 1278570496
I0130 20:52:07.319996 34322 layer_factory.hpp:77] Creating layer pool2
I0130 20:52:07.320013 34322 net.cpp:86] Creating Layer pool2
I0130 20:52:07.320022 34322 net.cpp:408] pool2 <- conv2
I0130 20:52:07.320036 34322 net.cpp:382] pool2 -> pool2
I0130 20:52:07.320134 34322 net.cpp:124] Setting up pool2
I0130 20:52:07.320153 34322 net.cpp:131] Top shape: 256 256 13 13 (11075584)
I0130 20:52:07.320163 34322 net.cpp:139] Memory required for data: 1322872832
I0130 20:52:07.320173 34322 layer_factory.hpp:77] Creating layer norm2
I0130 20:52:07.320200 34322 net.cpp:86] Creating Layer norm2
I0130 20:52:07.320212 34322 net.cpp:408] norm2 <- pool2
I0130 20:52:07.320228 34322 net.cpp:382] norm2 -> norm2
I0130 20:52:07.322316 34322 net.cpp:124] Setting up norm2
I0130 20:52:07.322340 34322 net.cpp:131] Top shape: 256 256 13 13 (11075584)
I0130 20:52:07.322350 34322 net.cpp:139] Memory required for data: 1367175168
I0130 20:52:07.322360 34322 layer_factory.hpp:77] Creating layer conv3
I0130 20:52:07.322396 34322 net.cpp:86] Creating Layer conv3
I0130 20:52:07.322409 34322 net.cpp:408] conv3 <- norm2
I0130 20:52:07.322427 34322 net.cpp:382] conv3 -> conv3
I0130 20:52:07.379606 34322 net.cpp:124] Setting up conv3
I0130 20:52:07.379680 34322 net.cpp:131] Top shape: 256 384 13 13 (16613376)
I0130 20:52:07.379688 34322 net.cpp:139] Memory required for data: 1433628672
I0130 20:52:07.379742 34322 layer_factory.hpp:77] Creating layer relu3
I0130 20:52:07.379765 34322 net.cpp:86] Creating Layer relu3
I0130 20:52:07.379772 34322 net.cpp:408] relu3 <- conv3
I0130 20:52:07.379787 34322 net.cpp:369] relu3 -> conv3 (in-place)
I0130 20:52:07.380554 34322 net.cpp:124] Setting up relu3
I0130 20:52:07.380585 34322 net.cpp:131] Top shape: 256 384 13 13 (16613376)
I0130 20:52:07.380592 34322 net.cpp:139] Memory required for data: 1500082176
I0130 20:52:07.380599 34322 layer_factory.hpp:77] Creating layer conv4
I0130 20:52:07.380620 34322 net.cpp:86] Creating Layer conv4
I0130 20:52:07.380630 34322 net.cpp:408] conv4 <- conv3
I0130 20:52:07.380640 34322 net.cpp:382] conv4 -> conv4
I0130 20:52:07.419154 34322 net.cpp:124] Setting up conv4
I0130 20:52:07.419220 34322 net.cpp:131] Top shape: 256 384 13 13 (16613376)
I0130 20:52:07.419229 34322 net.cpp:139] Memory required for data: 1566535680
I0130 20:52:07.419246 34322 layer_factory.hpp:77] Creating layer relu4
I0130 20:52:07.419266 34322 net.cpp:86] Creating Layer relu4
I0130 20:52:07.419275 34322 net.cpp:408] relu4 <- conv4
I0130 20:52:07.419291 34322 net.cpp:369] relu4 -> conv4 (in-place)
I0130 20:52:07.421458 34322 net.cpp:124] Setting up relu4
I0130 20:52:07.421489 34322 net.cpp:131] Top shape: 256 384 13 13 (16613376)
I0130 20:52:07.421495 34322 net.cpp:139] Memory required for data: 1632989184
I0130 20:52:07.421501 34322 layer_factory.hpp:77] Creating layer conv5
I0130 20:52:07.421557 34322 net.cpp:86] Creating Layer conv5
I0130 20:52:07.421567 34322 net.cpp:408] conv5 <- conv4
I0130 20:52:07.421577 34322 net.cpp:382] conv5 -> conv5
I0130 20:52:07.451795 34322 net.cpp:124] Setting up conv5
I0130 20:52:07.451910 34322 net.cpp:131] Top shape: 256 256 13 13 (11075584)
I0130 20:52:07.451918 34322 net.cpp:139] Memory required for data: 1677291520
I0130 20:52:07.451944 34322 layer_factory.hpp:77] Creating layer relu5
I0130 20:52:07.451961 34322 net.cpp:86] Creating Layer relu5
I0130 20:52:07.451969 34322 net.cpp:408] relu5 <- conv5
I0130 20:52:07.451983 34322 net.cpp:369] relu5 -> conv5 (in-place)
I0130 20:52:07.454100 34322 net.cpp:124] Setting up relu5
I0130 20:52:07.454133 34322 net.cpp:131] Top shape: 256 256 13 13 (11075584)
I0130 20:52:07.454139 34322 net.cpp:139] Memory required for data: 1721593856
I0130 20:52:07.454145 34322 layer_factory.hpp:77] Creating layer pool5
I0130 20:52:07.454159 34322 net.cpp:86] Creating Layer pool5
I0130 20:52:07.454164 34322 net.cpp:408] pool5 <- conv5
I0130 20:52:07.454174 34322 net.cpp:382] pool5 -> pool5
I0130 20:52:07.454242 34322 net.cpp:124] Setting up pool5
I0130 20:52:07.454255 34322 net.cpp:131] Top shape: 256 256 6 6 (2359296)
I0130 20:52:07.454260 34322 net.cpp:139] Memory required for data: 1731031040
I0130 20:52:07.454267 34322 layer_factory.hpp:77] Creating layer fc6
I0130 20:52:07.454293 34322 net.cpp:86] Creating Layer fc6
I0130 20:52:07.454300 34322 net.cpp:408] fc6 <- pool5
I0130 20:52:07.454313 34322 net.cpp:382] fc6 -> fc6
I0130 20:52:08.929889 34322 net.cpp:124] Setting up fc6
I0130 20:52:08.929954 34322 net.cpp:131] Top shape: 256 4096 (1048576)
I0130 20:52:08.929960 34322 net.cpp:139] Memory required for data: 1735225344
I0130 20:52:08.929986 34322 layer_factory.hpp:77] Creating layer relu6
I0130 20:52:08.930019 34322 net.cpp:86] Creating Layer relu6
I0130 20:52:08.930034 34322 net.cpp:408] relu6 <- fc6
I0130 20:52:08.930058 34322 net.cpp:369] relu6 -> fc6 (in-place)
I0130 20:52:08.931004 34322 net.cpp:124] Setting up relu6
I0130 20:52:08.931021 34322 net.cpp:131] Top shape: 256 4096 (1048576)
I0130 20:52:08.931027 34322 net.cpp:139] Memory required for data: 1739419648
I0130 20:52:08.931035 34322 layer_factory.hpp:77] Creating layer drop6
I0130 20:52:08.931054 34322 net.cpp:86] Creating Layer drop6
I0130 20:52:08.931061 34322 net.cpp:408] drop6 <- fc6
I0130 20:52:08.931073 34322 net.cpp:369] drop6 -> fc6 (in-place)
I0130 20:52:08.931115 34322 net.cpp:124] Setting up drop6
I0130 20:52:08.931128 34322 net.cpp:131] Top shape: 256 4096 (1048576)
I0130 20:52:08.931134 34322 net.cpp:139] Memory required for data: 1743613952
I0130 20:52:08.931139 34322 layer_factory.hpp:77] Creating layer fc7
I0130 20:52:08.931159 34322 net.cpp:86] Creating Layer fc7
I0130 20:52:08.931167 34322 net.cpp:408] fc7 <- fc6
I0130 20:52:08.931176 34322 net.cpp:382] fc7 -> fc7
I0130 20:52:09.614905 34322 net.cpp:124] Setting up fc7
I0130 20:52:09.614951 34322 net.cpp:131] Top shape: 256 4096 (1048576)
I0130 20:52:09.614959 34322 net.cpp:139] Memory required for data: 1747808256
I0130 20:52:09.614975 34322 layer_factory.hpp:77] Creating layer relu7
I0130 20:52:09.615000 34322 net.cpp:86] Creating Layer relu7
I0130 20:52:09.615008 34322 net.cpp:408] relu7 <- fc7
I0130 20:52:09.615021 34322 net.cpp:369] relu7 -> fc7 (in-place)
I0130 20:52:09.615355 34322 net.cpp:124] Setting up relu7
I0130 20:52:09.615370 34322 net.cpp:131] Top shape: 256 4096 (1048576)
I0130 20:52:09.615375 34322 net.cpp:139] Memory required for data: 1752002560
I0130 20:52:09.615381 34322 layer_factory.hpp:77] Creating layer drop7
I0130 20:52:09.615401 34322 net.cpp:86] Creating Layer drop7
I0130 20:52:09.615419 34322 net.cpp:408] drop7 <- fc7
I0130 20:52:09.615435 34322 net.cpp:369] drop7 -> fc7 (in-place)
I0130 20:52:09.615469 34322 net.cpp:124] Setting up drop7
I0130 20:52:09.615483 34322 net.cpp:131] Top shape: 256 4096 (1048576)
I0130 20:52:09.615489 34322 net.cpp:139] Memory required for data: 1756196864
I0130 20:52:09.615496 34322 layer_factory.hpp:77] Creating layer fc8
I0130 20:52:09.615514 34322 net.cpp:86] Creating Layer fc8
I0130 20:52:09.615520 34322 net.cpp:408] fc8 <- fc7
I0130 20:52:09.615528 34322 net.cpp:382] fc8 -> fc8
I0130 20:52:09.617311 34322 net.cpp:124] Setting up fc8
I0130 20:52:09.617359 34322 net.cpp:131] Top shape: 256 10 (2560)
I0130 20:52:09.617378 34322 net.cpp:139] Memory required for data: 1756207104
I0130 20:52:09.617388 34322 layer_factory.hpp:77] Creating layer loss
I0130 20:52:09.617406 34322 net.cpp:86] Creating Layer loss
I0130 20:52:09.617415 34322 net.cpp:408] loss <- fc8
I0130 20:52:09.617422 34322 net.cpp:408] loss <- label
I0130 20:52:09.617454 34322 net.cpp:382] loss -> loss
I0130 20:52:09.617478 34322 layer_factory.hpp:77] Creating layer loss
…
I0130 20:52:09.620188 34322 solver.cpp:173] Creating test net (#0) specified by net file: caffenet_train.prototxt
I0130 20:52:09.620256 34322 net.cpp:296] The NetState phase (1) differed from the phase (0) specified by a rule in layer data
I0130 20:52:09.620527 34322 net.cpp:53] Initializing net from parameters: 
name: "CaffeNet"
state {
  phase: TEST
}
layer {
  name: "data"
  type: "Data"
  top: "data"
  top: "label"
  include {
    phase: TEST
  }
  transform_param {
    mirror: false
    crop_size: 227
    mean_file: "../mean.binaryproto"
  }
  data_param {
    source: "../val_lmdb"
    batch_size: 50
    backend: LMDB
  }
}
layer {
  name: "conv1"
  type: "Convolution"
  bottom: "data"
  top: "conv1"
  param {
    lr_mult: 1
    decay_mult: 1
  }
  param {
    lr_mult: 2
    decay_mult: 0
  }
  convolution_param {
    num_output: 96
    kernel_size: 11
    stride: 4
    weight_filler {
      type: "gaussian"
      std: 0.01
    }
    bias_filler {
      type: "constant"
      value: 0
    }
  }
}
layer {
  name: "relu1"
  type: "ReLU"
  bottom: "conv1"
  top: "conv1"
}
layer {
  name: "pool1"
  type: "Pooling"
  bottom: "conv1"
  top: "pool1"
  pooling_param {
    pool: MAX
    kernel_size: 3
    stride: 2
  }
}
layer {
  name: "norm1"
  type: "LRN"
  bottom: "pool1"
  top: "norm1"
  lrn_param {
    local_size: 5
    alpha: 0.0001
    beta: 0.75
  }
}
layer {
  name: "conv2"
  type: "Convolution"
  bottom: "norm1"
  top: "conv2"
  param {
    lr_mult: 1
    decay_mult: 1
  }
  param {
    lr_mult: 2
    decay_mult: 0
  }
  convolution_param {
    num_output: 256
    pad: 2
    kernel_size: 5
    group: 2
    weight_filler {
      type: "gaussian"
      std: 0.01
    }
    bias_filler {
      type: "constant"
      value: 1
    }
  }
}
layer {
  name: "relu2"
  type: "ReLU"
  bottom: "conv2"
  top: "conv2"
}
layer {
  name: "pool2"
  type: "Pooling"
  bottom: "conv2"
  top: "pool2"
  pooling_param {
    pool: MAX
    kernel_size: 3
    stride: 2
  }
}
layer {
  name: "norm2"
  type: "LRN"
  bottom: "pool2"
  top: "norm2"
  lrn_param {
    local_size: 5
    alpha: 0.0001
    beta: 0.75
  }
}
layer {
  name: "conv3"
  type: "Convolution"
  bottom: "norm2"
  top: "conv3"
  param {
    lr_mult: 1
    decay_mult: 1
  }
  param {
    lr_mult: 2
    decay_mult: 0
  }
  convolution_param {
    num_output: 384
    pad: 1
    kernel_size: 3
    weight_filler {
      type: "gaussian"
      std: 0.01
    }
    bias_filler {
      type: "constant"
      value: 0
    }
  }
}
layer {
  name: "relu3"
  type: "ReLU"
  bottom: "conv3"
  top: "conv3"
}
layer {
  name: "conv4"
  type: "Convolution"
  bottom: "conv3"
  top: "conv4"
  param {
    lr_mult: 1
    decay_mult: 1
  }
  param {
    lr_mult: 2
    decay_mult: 0
  }
  convolution_param {
    num_output: 384
    pad: 1
    kernel_size: 3
    group: 2
    weight_filler {
      type: "gaussian"
      std: 0.01
    }
    bias_filler {
      type: "constant"
      value: 1
    }
  }
}
layer {
  name: "relu4"
  type: "ReLU"
  bottom: "conv4"
  top: "conv4"
}
layer {
  name: "conv5"
  type: "Convolution"
  bottom: "conv4"
  top: "conv5"
  param {
    lr_mult: 1
    decay_mult: 1
  }
  param {
    lr_mult: 2
    decay_mult: 0
  }
  convolution_param {
    num_output: 256
    pad: 1
    kernel_size: 3
    group: 2
    weight_filler {
      type: "gaussian"
      std: 0.01
    }
    bias_filler {
      type: "constant"
      value: 1
    }
  }
}
layer {
  name: "relu5"
  type: "ReLU"
  bottom: "conv5"
  top: "conv5"
}
layer {
  name: "pool5"
  type: "Pooling"
  bottom: "conv5"
  top: "pool5"
  pooling_param {
    pool: MAX
    kernel_size: 3
    stride: 2
  }
}
layer {
  name: "fc6"
  type: "InnerProduct"
  bottom: "pool5"
  top: "fc6"
  param {
    lr_mult: 1
    decay_mult: 1
  }
  param {
    lr_mult: 2
    decay_mult: 0
  }
  inner_product_param {
    num_output: 4096
    weight_filler {
      type: "gaussian"
      std: 0.005
    }
    bias_filler {
      type: "constant"
      value: 1
    }
  }
}
layer {
  name: "relu6"
  type: "ReLU"
  bottom: "fc6"
  top: "fc6"
}
layer {
  name: "drop6"
  type: "Dropout"
  bottom: "fc6"
  top: "fc6"
  dropout_param {
    dropout_ratio: 0.5
  }
}
layer {
  name: "fc7"
  type: "InnerProduct"
  bottom: "fc6"
  top: "fc7"
  param {
    lr_mult: 1
    decay_mult: 1
  }
  param {
    lr_mult: 2
    decay_mult: 0
  }
  inner_product_param {
    num_output: 4096
    weight_filler {
      type: "gaussian"
      std: 0.005
    }
    bias_filler {
      type: "constant"
      value: 1
    }
  }
}
layer {
  name: "relu7"
  type: "ReLU"
  bottom: "fc7"
  top: "fc7"
}
layer {
  name: "drop7"
  type: "Dropout"
  bottom: "fc7"
  top: "fc7"
  dropout_param {
    dropout_ratio: 0.5
  }
}
layer {
  name: "fc8"
  type: "InnerProduct"
  bottom: "fc7"
  top: "fc8"
  param {
    lr_mult: 1
    decay_mult: 1
  }
  param {
    lr_mult: 2
    decay_mult: 0
  }
  inner_product_param {
    num_output: 10
    weight_filler {
      type: "gaussian"
      std: 0.01
    }
    bias_filler {
      type: "constant"
      value: 0
    }
  }
}
layer {
  name: "accuracy"
  type: "Accuracy"
  bottom: "fc8"
  bottom: "label"
  top: "accuracy"
  include {
    phase: TEST
  }
}
layer {
  name: "loss"
  type: "SoftmaxWithLoss"
  bottom: "fc8"
  bottom: "label"
  top: "loss"
}
I0130 20:52:09.620731 34322 layer_factory.hpp:77] Creating layer data
I0130 20:52:09.622069 34322 db_lmdb.cpp:35] Opened lmdb ../val_lmdb
I0130 20:52:09.622257 34322 net.cpp:86] Creating Layer data
I0130 20:52:09.622294 34322 net.cpp:382] data -> data
I0130 20:52:09.622313 34322 net.cpp:382] data -> label
I0130 20:52:09.622328 34322 data_transformer.cpp:25] Loading mean file from: ../mean.binaryproto
I0130 20:52:09.626248 34322 data_layer.cpp:45] output data size: 50,3,227,227
I0130 20:52:09.749724 34322 net.cpp:124] Setting up data
I0130 20:52:09.749776 34322 net.cpp:131] Top shape: 50 3 227 227 (7729350)
I0130 20:52:09.749788 34322 net.cpp:131] Top shape: 50 (50)
I0130 20:52:09.749794 34322 net.cpp:139] Memory required for data: 30917600
I0130 20:52:09.749805 34322 layer_factory.hpp:77] Creating layer label_data_1_split
I0130 20:52:09.749833 34322 net.cpp:86] Creating Layer label_data_1_split
I0130 20:52:09.749845 34322 net.cpp:408] label_data_1_split <- label
I0130 20:52:09.749857 34322 net.cpp:382] label_data_1_split -> label_data_1_split_0
I0130 20:52:09.749874 34322 net.cpp:382] label_data_1_split -> label_data_1_split_1
I0130 20:52:09.749985 34322 net.cpp:124] Setting up label_data_1_split
I0130 20:52:09.750000 34322 net.cpp:131] Top shape: 50 (50)
I0130 20:52:09.750010 34322 net.cpp:131] Top shape: 50 (50)
I0130 20:52:09.750015 34322 net.cpp:139] Memory required for data: 30918000
I0130 20:52:09.750021 34322 layer_factory.hpp:77] Creating layer conv1
I0130 20:52:09.750049 34322 net.cpp:86] Creating Layer conv1
I0130 20:52:09.750058 34322 net.cpp:408] conv1 <- data
I0130 20:52:09.750071 34322 net.cpp:382] conv1 -> conv1
I0130 20:52:09.759934 34322 net.cpp:124] Setting up conv1
I0130 20:52:09.759974 34322 net.cpp:131] Top shape: 50 96 55 55 (14520000)
I0130 20:52:09.759982 34322 net.cpp:139] Memory required for data: 88998000
I0130 20:52:09.760001 34322 layer_factory.hpp:77] Creating layer relu1
I0130 20:52:09.760016 34322 net.cpp:86] Creating Layer relu1
I0130 20:52:09.760023 34322 net.cpp:408] relu1 <- conv1
I0130 20:52:09.760032 34322 net.cpp:369] relu1 -> conv1 (in-place)
I0130 20:52:09.761391 34322 net.cpp:124] Setting up relu1
I0130 20:52:09.761420 34322 net.cpp:131] Top shape: 50 96 55 55 (14520000)
I0130 20:52:09.761426 34322 net.cpp:139] Memory required for data: 147078000
I0130 20:52:09.761432 34322 layer_factory.hpp:77] Creating layer pool1
I0130 20:52:09.761446 34322 net.cpp:86] Creating Layer pool1
I0130 20:52:09.761452 34322 net.cpp:408] pool1 <- conv1
I0130 20:52:09.761466 34322 net.cpp:382] pool1 -> pool1
I0130 20:52:09.761528 34322 net.cpp:124] Setting up pool1
I0130 20:52:09.761541 34322 net.cpp:131] Top shape: 50 96 27 27 (3499200)
I0130 20:52:09.761548 34322 net.cpp:139] Memory required for data: 161074800
I0130 20:52:09.761554 34322 layer_factory.hpp:77] Creating layer norm1
I0130 20:52:09.761570 34322 net.cpp:86] Creating Layer norm1
I0130 20:52:09.761579 34322 net.cpp:408] norm1 <- pool1
I0130 20:52:09.761587 34322 net.cpp:382] norm1 -> norm1
I0130 20:52:09.763651 34322 net.cpp:124] Setting up norm1
I0130 20:52:09.763670 34322 net.cpp:131] Top shape: 50 96 27 27 (3499200)
I0130 20:52:09.763677 34322 net.cpp:139] Memory required for data: 175071600
I0130 20:52:09.763684 34322 layer_factory.hpp:77] Creating layer conv2
I0130 20:52:09.763700 34322 net.cpp:86] Creating Layer conv2
I0130 20:52:09.763706 34322 net.cpp:408] conv2 <- norm1
I0130 20:52:09.763720 34322 net.cpp:382] conv2 -> conv2
I0130 20:52:09.787808 34322 net.cpp:124] Setting up conv2
I0130 20:52:09.787859 34322 net.cpp:131] Top shape: 50 256 27 27 (9331200)
I0130 20:52:09.787868 34322 net.cpp:139] Memory required for data: 212396400
I0130 20:52:09.787894 34322 layer_factory.hpp:77] Creating layer relu2
I0130 20:52:09.787917 34322 net.cpp:86] Creating Layer relu2
I0130 20:52:09.787927 34322 net.cpp:408] relu2 <- conv2
I0130 20:52:09.787942 34322 net.cpp:369] relu2 -> conv2 (in-place)
I0130 20:52:09.789883 34322 net.cpp:124] Setting up relu2
I0130 20:52:09.789902 34322 net.cpp:131] Top shape: 50 256 27 27 (9331200)
I0130 20:52:09.789909 34322 net.cpp:139] Memory required for data: 249721200
I0130 20:52:09.789916 34322 layer_factory.hpp:77] Creating layer pool2
I0130 20:52:09.789933 34322 net.cpp:86] Creating Layer pool2
I0130 20:52:09.789983 34322 net.cpp:408] pool2 <- conv2
I0130 20:52:09.789999 34322 net.cpp:382] pool2 -> pool2
I0130 20:52:09.790071 34322 net.cpp:124] Setting up pool2
I0130 20:52:09.790086 34322 net.cpp:131] Top shape: 50 256 13 13 (2163200)
I0130 20:52:09.790093 34322 net.cpp:139] Memory required for data: 258374000
I0130 20:52:09.790099 34322 layer_factory.hpp:77] Creating layer norm2
I0130 20:52:09.790114 34322 net.cpp:86] Creating Layer norm2
I0130 20:52:09.790122 34322 net.cpp:408] norm2 <- pool2
I0130 20:52:09.790132 34322 net.cpp:382] norm2 -> norm2
I0130 20:52:09.792210 34322 net.cpp:124] Setting up norm2
I0130 20:52:09.792230 34322 net.cpp:131] Top shape: 50 256 13 13 (2163200)
I0130 20:52:09.792237 34322 net.cpp:139] Memory required for data: 267026800
I0130 20:52:09.792243 34322 layer_factory.hpp:77] Creating layer conv3
I0130 20:52:09.792268 34322 net.cpp:86] Creating Layer conv3
I0130 20:52:09.792278 34322 net.cpp:408] conv3 <- norm2
I0130 20:52:09.792290 34322 net.cpp:382] conv3 -> conv3
I0130 20:52:09.833997 34322 net.cpp:124] Setting up conv3
I0130 20:52:09.834043 34322 net.cpp:131] Top shape: 50 384 13 13 (3244800)
I0130 20:52:09.834051 34322 net.cpp:139] Memory required for data: 280006000
I0130 20:52:09.834076 34322 layer_factory.hpp:77] Creating layer relu3
I0130 20:52:09.834095 34322 net.cpp:86] Creating Layer relu3
I0130 20:52:09.834107 34322 net.cpp:408] relu3 <- conv3
I0130 20:52:09.834120 34322 net.cpp:369] relu3 -> conv3 (in-place)
I0130 20:52:09.836313 34322 net.cpp:124] Setting up relu3
I0130 20:52:09.836333 34322 net.cpp:131] Top shape: 50 384 13 13 (3244800)
I0130 20:52:09.836339 34322 net.cpp:139] Memory required for data: 292985200
I0130 20:52:09.836345 34322 layer_factory.hpp:77] Creating layer conv4
I0130 20:52:09.836365 34322 net.cpp:86] Creating Layer conv4
I0130 20:52:09.836376 34322 net.cpp:408] conv4 <- conv3
I0130 20:52:09.836388 34322 net.cpp:382] conv4 -> conv4
I0130 20:52:09.876673 34322 net.cpp:124] Setting up conv4
I0130 20:52:09.876720 34322 net.cpp:131] Top shape: 50 384 13 13 (3244800)
I0130 20:52:09.876729 34322 net.cpp:139] Memory required for data: 305964400
I0130 20:52:09.876744 34322 layer_factory.hpp:77] Creating layer relu4
I0130 20:52:09.876762 34322 net.cpp:86] Creating Layer relu4
I0130 20:52:09.876771 34322 net.cpp:408] relu4 <- conv4
I0130 20:52:09.876785 34322 net.cpp:369] relu4 -> conv4 (in-place)
I0130 20:52:09.878684 34322 net.cpp:124] Setting up relu4
I0130 20:52:09.878702 34322 net.cpp:131] Top shape: 50 384 13 13 (3244800)
I0130 20:52:09.878708 34322 net.cpp:139] Memory required for data: 318943600
I0130 20:52:09.878715 34322 layer_factory.hpp:77] Creating layer conv5
I0130 20:52:09.878736 34322 net.cpp:86] Creating Layer conv5
I0130 20:52:09.878744 34322 net.cpp:408] conv5 <- conv4
I0130 20:52:09.878756 34322 net.cpp:382] conv5 -> conv5
I0130 20:52:09.913023 34322 net.cpp:124] Setting up conv5
I0130 20:52:09.913065 34322 net.cpp:131] Top shape: 50 256 13 13 (2163200)
I0130 20:52:09.913074 34322 net.cpp:139] Memory required for data: 327596400
I0130 20:52:09.913096 34322 layer_factory.hpp:77] Creating layer relu5
I0130 20:52:09.913112 34322 net.cpp:86] Creating Layer relu5
I0130 20:52:09.913123 34322 net.cpp:408] relu5 <- conv5
I0130 20:52:09.913136 34322 net.cpp:369] relu5 -> conv5 (in-place)
I0130 20:52:09.915277 34322 net.cpp:124] Setting up relu5
I0130 20:52:09.915294 34322 net.cpp:131] Top shape: 50 256 13 13 (2163200)
I0130 20:52:09.915302 34322 net.cpp:139] Memory required for data: 336249200
I0130 20:52:09.915307 34322 layer_factory.hpp:77] Creating layer pool5
I0130 20:52:09.915334 34322 net.cpp:86] Creating Layer pool5
I0130 20:52:09.915349 34322 net.cpp:408] pool5 <- conv5
I0130 20:52:09.915361 34322 net.cpp:382] pool5 -> pool5
I0130 20:52:09.915438 34322 net.cpp:124] Setting up pool5
I0130 20:52:09.915452 34322 net.cpp:131] Top shape: 50 256 6 6 (460800)
I0130 20:52:09.915459 34322 net.cpp:139] Memory required for data: 338092400
I0130 20:52:09.915464 34322 layer_factory.hpp:77] Creating layer fc6
I0130 20:52:09.915482 34322 net.cpp:86] Creating Layer fc6
I0130 20:52:09.915525 34322 net.cpp:408] fc6 <- pool5
I0130 20:52:09.915546 34322 net.cpp:382] fc6 -> fc6
I0130 20:52:11.347332 34322 net.cpp:124] Setting up fc6
I0130 20:52:11.347409 34322 net.cpp:131] Top shape: 50 4096 (204800)
I0130 20:52:11.347417 34322 net.cpp:139] Memory required for data: 338911600
I0130 20:52:11.347452 34322 layer_factory.hpp:77] Creating layer relu6
I0130 20:52:11.347498 34322 net.cpp:86] Creating Layer relu6
I0130 20:52:11.347515 34322 net.cpp:408] relu6 <- fc6
I0130 20:52:11.347542 34322 net.cpp:369] relu6 -> fc6 (in-place)
I0130 20:52:11.348636 34322 net.cpp:124] Setting up relu6
I0130 20:52:11.348667 34322 net.cpp:131] Top shape: 50 4096 (204800)
I0130 20:52:11.348673 34322 net.cpp:139] Memory required for data: 339730800
I0130 20:52:11.348682 34322 layer_factory.hpp:77] Creating layer drop6
I0130 20:52:11.348702 34322 net.cpp:86] Creating Layer drop6
I0130 20:52:11.348709 34322 net.cpp:408] drop6 <- fc6
I0130 20:52:11.348719 34322 net.cpp:369] drop6 -> fc6 (in-place)
I0130 20:52:11.348799 34322 net.cpp:124] Setting up drop6
I0130 20:52:11.348812 34322 net.cpp:131] Top shape: 50 4096 (204800)
I0130 20:52:11.348820 34322 net.cpp:139] Memory required for data: 340550000
I0130 20:52:11.348826 34322 layer_factory.hpp:77] Creating layer fc7
I0130 20:52:11.348845 34322 net.cpp:86] Creating Layer fc7
I0130 20:52:11.348852 34322 net.cpp:408] fc7 <- fc6
I0130 20:52:11.348866 34322 net.cpp:382] fc7 -> fc7
I0130 20:52:12.022508 34322 net.cpp:124] Setting up fc7
I0130 20:52:12.022579 34322 net.cpp:131] Top shape: 50 4096 (204800)
I0130 20:52:12.022586 34322 net.cpp:139] Memory required for data: 341369200
I0130 20:52:12.022614 34322 layer_factory.hpp:77] Creating layer relu7
I0130 20:52:12.022640 34322 net.cpp:86] Creating Layer relu7
I0130 20:52:12.022663 34322 net.cpp:408] relu7 <- fc7
I0130 20:52:12.022678 34322 net.cpp:369] relu7 -> fc7 (in-place)
I0130 20:52:12.023128 34322 net.cpp:124] Setting up relu7
I0130 20:52:12.023144 34322 net.cpp:131] Top shape: 50 4096 (204800)
I0130 20:52:12.023150 34322 net.cpp:139] Memory required for data: 342188400
I0130 20:52:12.023159 34322 layer_factory.hpp:77] Creating layer drop7
I0130 20:52:12.023175 34322 net.cpp:86] Creating Layer drop7
I0130 20:52:12.023180 34322 net.cpp:408] drop7 <- fc7
I0130 20:52:12.023192 34322 net.cpp:369] drop7 -> fc7 (in-place)
I0130 20:52:12.023250 34322 net.cpp:124] Setting up drop7
I0130 20:52:12.023262 34322 net.cpp:131] Top shape: 50 4096 (204800)
I0130 20:52:12.023268 34322 net.cpp:139] Memory required for data: 343007600
I0130 20:52:12.023277 34322 layer_factory.hpp:77] Creating layer fc8
I0130 20:52:12.023305 34322 net.cpp:86] Creating Layer fc8
I0130 20:52:12.023311 34322 net.cpp:408] fc8 <- fc7
I0130 20:52:12.023322 34322 net.cpp:382] fc8 -> fc8
I0130 20:52:12.025032 34322 net.cpp:124] Setting up fc8
I0130 20:52:12.025071 34322 net.cpp:131] Top shape: 50 10 (500)
I0130 20:52:12.025077 34322 net.cpp:139] Memory required for data: 343009600
I0130 20:52:12.025087 34322 layer_factory.hpp:77] Creating layer fc8_fc8_0_split
I0130 20:52:12.025099 34322 net.cpp:86] Creating Layer fc8_fc8_0_split
I0130 20:52:12.025105 34322 net.cpp:408] fc8_fc8_0_split <- fc8
I0130 20:52:12.025115 34322 net.cpp:382] fc8_fc8_0_split -> fc8_fc8_0_split_0
I0130 20:52:12.025125 34322 net.cpp:382] fc8_fc8_0_split -> fc8_fc8_0_split_1
I0130 20:52:12.025182 34322 net.cpp:124] Setting up fc8_fc8_0_split
I0130 20:52:12.025195 34322 net.cpp:131] Top shape: 50 10 (500)
I0130 20:52:12.025202 34322 net.cpp:131] Top shape: 50 10 (500)
I0130 20:52:12.025207 34322 net.cpp:139] Memory required for data: 343013600
I0130 20:52:12.025213 34322 layer_factory.hpp:77] Creating layer accuracy
I0130 20:52:12.025233 34322 net.cpp:86] Creating Layer accuracy
I0130 20:52:12.025240 34322 net.cpp:408] accuracy <- fc8_fc8_0_split_0
I0130 20:52:12.025248 34322 net.cpp:408] accuracy <- label_data_1_split_0
I0130 20:52:12.025259 34322 net.cpp:382] accuracy -> accuracy
…
